Project 3/models/multiple_linear_model.pt (torch, 408587 bytes, 25 tensors)

weight f4 [16, 1, 3, 3]
0	0xbc36212b	-0.011116306
1	0xbe90514f	-0.28187034
2	0xbe99e314	-0.3005606
3	0xbe314f10	-0.17315316
4	0x3ddbfa48	0.10741097
5	0xbdab86c6	-0.08375315
6	0x3e05be57	0.1306089
7	0xbe1d0721	-0.1533475
8	0xbeb88f32	-0.3604675
9	0xbe4b1098	-0.19830549
10	0xbd94c376	-0.07263844
11	0x3e8096f3	0.25115165
12	0x3e3451bc	0.17609304
13	0xbd650411	-0.05591208
14	0x3e712f8e	0.23553297
15	0x3db0ccd8	0.08632821
16	0xbe61046b	-0.21974342
17	0x3e88becb	0.26708063
18	0xbe66cbad	-0.22538634
19	0xbd3f46ba	-0.04669831
20	0xbd3127ac	-0.043250725
21	0xbded7bdb	-0.11595889
22	0xbd5b1db7	-0.053495135
23	0xbd868d46	-0.065699145
24	0xbd49755a	-0.04918418
25	0xbe9daecb	-0.3079742
26	0xbd84a724	-0.06477192
27	0x3e118a35	0.14212878
28	0x3d32c298	0.04364261
29	0x3e8d58f1	0.2760692
30	0x3e80455d	0.2505292
31	0x3e9cefe7	0.3065178
32	0xbdf8eb06	-0.12154202
33	0xbe83dc3a	-0.25753957
34	0xbe860fb5	-0.2618386
35	0x3e470acc	0.19437712
36	0xbe326ed2	-0.17425087
37	0x3e77f224	0.24213463
38	0xbe1ef24b	-0.15522115
39	0xbe9e40c9	-0.30908802
40	0xbeb0905b	-0.34485134
41	0x3c8e6c22	0.017385546
42	0x3e37a14e	0.17932627
43	0xbe83637e	-0.25661844
44	0xbe8461e7	-0.25855944
45	0x3eb81c50	0.359591
46	0x3e10209e	0.14074942
47	0x3e61cfbe	0.22051904
48	0x3e9a7066	0.30163878
49	0xbdfe23f8	-0.12409204
50	0xbdbf3d36	-0.09337847
51	0xbdf5dc44	-0.12004903
52	0xbdfeba7a	-0.12437911
53	0x3d4b430e	0.049624495
54	0x3e58299a	0.2110962
55	0x3ea5c60d	0.32377663
56	0xbe8d5088	-0.27600503
57	0x3dfdda2e	0.1239513
58	0x3e88bb15	0.26705232
59	0xbd0c9a16	-0.034326635
60	0xbe8b7d83	-0.27244195
61	0xbc8a37c4	-0.016872294
62	0xbbfc1c44	-0.007693799
63	0x3eb5dc42	0.35519606
64	0xbe1ad2d8	-0.15119493
65	0x3e5ad73f	0.21371172
66	0x3c8905c7	0.016726388
67	0xbda89844	-0.08232167
68	0x3e18b3dc	0.14912361
69	0x3e74adfe	0.23894498
70	0x3e8c21b0	0.27369452
71	0x3e794234	0.2434166
72	0xbeac34ff	-0.33634183
73	0xbe225505	-0.15852745
74	0x3e3787fc	0.17922968
75	0x3b88ced6	0.0041750474
76	0xbe3cece9	-0.18449749
77	0xbe92a7cd	-0.28643647
78	0x3e6cae13	0.23113279
79	0x3e85b360	0.26113415
80	0x3dab4e97	0.08364599
81	0xbe054e19	-0.13018073
82	0x3e66f00f	0.22552513
83	0x3dcb1aad	0.099171974
84	0x3e9a155b	0.30094418
85	0xbe886d87	-0.26646063
86	0xbe88eec0	-0.26744652
87	0x3cc9c7ed	0.024631465
88	0x3dfdb504	0.123880416
89	0xbeb8f8a9	-0.36127213
90	0x3e39f549	0.18159975
91	0xbe564e98	-0.20928419
92	0xbea8d67f	-0.32976148
93	0xbe4f9ba0	-0.2027421
94	0x3ceee34f	0.029161124
95	0x3e60449f	0.21901177
96	0xbda6b91a	-0.08140774
97	0xbe238c38	-0.15971458
98	0xbdf02c1e	-0.11727165
99	0xbce0b4cb	-0.027429959
100	0xbe090f06	-0.13384637
101	0xbe951cc0	-0.29123497
102	0xbcf2c77c	-0.029636137
103	0x3de25ef7	0.11053269
104	0x3d199daa	0.037503876
105	0xbdd20660	-0.10255122
106	0xbe053fca	-0.13012615
107	0xbe2057dd	-0.15658517
108	0xbe238f33	-0.15972595
109	0xbe89fbbb	-0.26949868
110	0x3cc66f09	0.024222868
111	0xbe59ad2e	-0.21257469
112	0x3dc8dee1	0.09808136
113	0xbe87462d	-0.26420727
114	0x3e06c1ae	0.1315982
115	0x3e726305	0.23670585
116	0xbe66bb4b	-0.22532384
117	0x3e3bc7ef	0.18337987
118	0xbe6e4890	-0.23269868
119	0x3e991cf7	0.2990491
120	0x3ea41454	0.3204676
121	0xbe1bbcbf	-0.1520872
122	0x3a003443	0.00048906
123	0x3e5dfe70	0.21679091
124	0xbda84aa0	-0.082173586
125	0x3e6007ce	0.21877977
126	0x3eb36e84	0.35045254
127	0x3eb02d71	0.3440967
128	0x3e8644e0	0.26224422
129	0x3d4d6466	0.050144576
130	0xbe9159d6	-0.28388852
131	0x3eb2b260	0.34901714
132	0x3d07ce09	0.033155475
133	0x3e91a5cc	0.28446805
134	0xbd86d5b1	-0.06583727
135	0x3eb75eac	0.35814416
136	0x3e8511f2	0.25990254
137	0xbdb8ecf8	-0.09029573
138	0x3d8f6b35	0.0700287
139	0xbd606abf	-0.0547893
140	0x3e8e0436	0.27737588
141	0x3d8a6b1e	0.06758712
142	0x3e73d6d3	0.23812418
143	0xbe87da68	-0.26533818

bias f4 [16]
0	0xbcfea5ad	-0.03108486
1	0x3e429464	0.19001919
2	0xbc3de3ee	-0.011589987
3	0xbd2a6981	-0.041604523
4	0x3e59724a	0.21235004
5	0x3e338c57	0.17534004
6	0x3d789abd	0.060694445
7	0xbe5ba586	-0.21449861
8	0x3e4c00b2	0.1992214
9	0x3e29aba3	0.1656938
10	0x3e02f049	0.12786974
11	0xbd6b0021	-0.05737317
12	0xbe8fe424	-0.28103745
13	0x3e78d79d	0.24301
14	0x3e9525e5	0.29130474
15	0x3e169565	0.14705427

weight f4 [16]
0	0x3f7a5e2d	0.9779995
1	0x3f8009d9	1.0003005
2	0x3f7a589f	0.97791475
3	0x3f82b196	1.0210445
4	0x3f7c8a8c	0.98648906
5	0x3f7ac512	0.97956955
6	0x3f7ab0fe	0.9792632
7	0x3f78166d	0.9690922
8	0x3f815571	1.01042
9	0x3f81cc97	1.0140561
10	0x3f803f6c	1.0019355
11	0x3f7dc900	0.99134827
12	0x3f7ea4b2	0.99470055
13	0x3f7da1af	0.99074835
14	0x3f7d0315	0.9883283
15	0x3f7cbebe	0.9872855

bias f4 [16]
0	0xbdaf0cfd	-0.08547399
1	0x3ae5a76b	0.0017521208
2	0xbdabf82c	-0.083969444
3	0x3d9d4adc	0.07680294
4	0xbda212a4	-0.07913712
5	0x3c25aa56	0.010111412
6	0x3c1089f1	0.00882195
7	0x3d95d08d	0.073151685
8	0xbcdc6d2b	-0.026907524
9	0xba655b32	-0.0008749246
10	0xbdb6e465	-0.089302815
11	0xbd99367b	-0.074810944
12	0x3c9e25dd	0.019305164
13	0x3da175cf	0.07883798
14	0x3dac4146	0.084108874
15	0x3d1a424f	0.037660893

running_mean f4 [16]
0	0xc338ba56	-184.72787
1	0x4224732a	41.112465
2	0xc31afae7	-154.98009
3	0x42734d14	60.82527
4	0xc3220512	-162.0198
5	0x42929606	73.293015
6	0x4280d9fc	64.42575
7	0x4358a195	216.63118
8	0xc1f99495	-31.19755
9	0xc105f3ec	-8.372051
10	0xc2a625f6	-83.07414
11	0xc2f4464f	-122.13732
12	0xc2a6f836	-83.48479
13	0x42f11c8c	120.555756
14	0x435f5dd3	223.3665
15	0x42f92474	124.5712

running_var f4 [16]
0	0x4527f687	2687.408
1	0x44369e64	730.47485
2	0x44d2fb1a	1687.8469
3	0x4483c119	1054.0343
4	0x451408c8	2368.5488
5	0x44844daf	1058.4276
6	0x4484e5ea	1063.1848
7	0x4556f6fa	3439.436
8	0x446aa3aa	938.55725
9	0x4465ae54	918.7239
10	0x44650c87	916.19574
11	0x448ff538	1151.6631
12	0x4482e856	1047.2605
13	0x44c00493	1536.143
14	0x4576cb3b	3948.702
15	0x44ce98a8	1652.7705

weight f4 [32, 16, 3, 3]
0	0xb842fc81	-4.6488367e-05
1	0x3d3d0ce8	0.046154886
2	0x3d771334	0.060321048
3	0xbd979618	-0.07401675
4	0x3b38ef42	0.002821878
5	0xbc9d6c4f	-0.019216685
6	0x3c6855be	0.014180599
7	0xbd53539b	-0.051593404
8	0x3a2d6db4	0.00066157733
9	0xbc6bd12e	-0.014393134
10	0xbd0e2bdd	-0.0347098
11	0xbd7f232d	-0.062289406
12	0x3dcd3c39	0.10021252
13	0xbd3a89ad	-0.045541454
14	0x3d18e261	0.037325267
15	0xbcdde1da	-0.027085233
16	0x3d24b69e	0.04021322
17	0xbd7d7c90	-0.06188637
18	0x3cb4b167	0.022057248
19	0xbce79327	-0.02826841
20	0xbd7652e1	-0.060137633
21	0xbc2f572d	-0.010701937
22	0xbd453170	-0.04814285
23	0xbd25cbdc	-0.04047762
24	0x3c07bb99	0.008284473
25	0x3dc9aec2	0.098477855
26	0xbd1d8a60	-0.038462043
27	0x3d1f81fd	0.038942326
28	0x3de244aa	0.11048253
29	0x3d89d982	0.067309394
30	0x3d2f4677	0.04279181
31	0xbd23eae5	-0.040018935
32	0x3c83268d	0.016009593
33	0x3b74ec53	0.0037372306
34	0x3dd16d11	0.10225881
35	0xbd3ae655	-0.045629818
36	0xbd295204	-0.04133798
37	0xbd9ca4a7	-0.076485924
38	0xbd0cc260	-0.034365058
39	0x3d2a342b	0.041553658
40	0x3d2e6d4f	0.042584714
41	0x3c1aeee9	0.009456375
42	0x3c38b5f5	0.011273851
43	0x3ce3bfc4	0.027801402
44	0x3b007359	0.0019600003
45	0xbd93585b	-0.07194587
46	0x3d3b6050	0.045746148
47	0xbd6648c3	-0.056221735
48	0x3d014982	0.031564243
49	0x3d217010	0.03941351
50	0xbd7fe0aa	-0.062470116
51	0x3d532180	0.05154562
52	0x3baf98aa	0.005358775
53	0x3d6ba2e1	0.05752838
54	0xbd6ff389	-0.058581863
55	0xbbbb5df8	-0.005717989
56	0x3d243230	0.040086925
57	0xbdb52d61	-0.08846546
58	0xbd8dc062	-0.0692146
59	0xbc21d99c	-0.009878542
60	0xbaddf144	-0.0016932865
61	0x3d8d1d31	0.068903334
62	0xbd164973	-0.03669114
63	0x3d19c929	0.037545357
64	0x3cd6fb77	0.026242955
65	0xbdab1847	-0.0835424
66	0xbd344416	-0.044010244
67	0xbdbdce5d	-0.09267876
68	0x3bb32ce7	0.0054679993
69	0xbd9f93d5	-0.077918686
70	0xbdd4243c	-0.10358474
71	0xbcf9bfa9	-0.030486898
72	0x3c614ae6	0.013750767
73	0xbc2a6336	-0.01039963
74	0x3d92bc5d	0.07164834
75	0x3dcf2a90	0.1011554
76	0x3c3e0b94	0.01159944
77	0x3d9ffe1a	0.07812138
78	0xbd20f6c6	-0.03929784
79	0xbd8a1fa3	-0.067443155
80	0xbd061688	-0.03273633
81	0xbdab232b	-0.08356317
82	0x3c4193b2	0.011814998
83	0xbc607fad	-0.013702315
84	0xbe0e9473	-0.13923816
85	0xbda83998	-0.0821411
86	0x3d627a2c	0.055292293
87	0xbd061309	-0.032732997
88	0xbd7cb51c	-0.061696157
89	0x3d557e70	0.052122533
90	0xbd14c446	-0.036319993
91	0x3bc33ea8	0.005958397
92	0x3c206e2b	0.009791891
93	0xbbe6eb1a	-0.0070470693
94	0xbc6be274	-0.014397252
95	0x3d401131	0.046891395
96	0x3d90da61	0.070729025
97	0xbc45430f	-0.012039914
98	0xbd7a1ef6	-0.061064683
99	0x3cf7c00b	0.03024294
100	0xbc445ac9	-0.0119845355
101	0xbd299e61	-0.041410808
102	0x3c5d73b7	0.013516358
103	0xbcdd05f4	-0.026980378
104	0xbcf90940	-0.030399919
105	0xbd0c3177	-0.03422686
106	0xbc376a09	-0.011194714
107	0xbbeaae4a	-0.00716189
108	0xbd1ad351	-0.037799183
109	0x3da8b7d4	0.082381874
110	0x3db0fd7f	0.086421005
111	0xbc740ca1	-0.014895589
112	0x3cca4c37	0.024694545
113	0x3d430055	0.04760774
114	0x3d00a8eb	0.031411093
115	0xbc73a57f	-0.014871
116	0xbb3a38ca	-0.0028415197
117	0x3cdd66de	0.02702659
118	0x3d2e5c5b	0.042568546
119	0x3d582569	0.052770052
120	0x3c9917fc	0.018688194
121	0xbaf2ba73	-0.0018518701
122	0xbd841682	-0.064496055
123	0xbd57d329	-0.052691612
124	0x3c8b3182	0.01699138
125	0xbdbf18b5	-0.09330884
126	0xbd9b273d	-0.075758435
127	0xbd9d482a	-0.0767978
128	0xbb481255	-0.0030528505
129	0xbbe655fa	-0.007029292
130	0x3d7c51c0	0.0616014
131	0x3d7e4e46	0.062086366
132	0xbd43f76a	-0.047843374
133	0xbc8d37ee	-0.017238583
134	0x3d139b36	0.036036693
135	0xbcecb9d1	-0.028897198
136	0x3c73ad23	0.014872822
137	0x3c051d44	0.008124653
138	0xbd2b89ad	-0.041879345
139	0xbd80b61b	-0.06284734
140	0xbd954100	-0.072877884
141	0xbdae2f03	-0.085050605
142	0xbb02b690	-0.0019945242
143	0x3d463f37	0.04840013
144	0xbd04dc47	-0.032436635
145	0x3d14f1c5	0.036363382
146	0x3d216a15	0.03940781
147	0x3cb925d4	0.022601046
148	0xbda3f579	-0.080058046
149	0x3cc701b4	0.024292804
150	0xbd4824b0	-0.048863113
151	0x3c005550	0.00783284
152	0xbc6fa9c0	-0.014627874
153	0xbd2c1274	-0.042009786
154	0x3c158214	0.009125251
155	0x3ca9faf6	0.02074955
156	0xbdba80ba	-0.09106584
157	0xbbc7d872	-0.0060988003
158	0x3c6500ca	0.013977239
159	0xb9c1ef26	-0.00036990008
160	0xbdbe6fc3	-0.092986606
161	0xbd8fce90	-0.070218205
162	0x3d3c2784	0.045936123
163	0xbbb98ef7	-0.0056627947
164	0x3d96b81e	0.07359336
165	0xbc7649e8	-0.015032269
166	0xbc1ca3b5	-0.009560515
167	0x3d16f3a9	0.036853466
168	0xbd99b275	-0.07504741
169	0xbd028020	-0.03186047
170	0xbc69d3d2	-0.014271693
171	0xbd28a2ef	-0.04117101
172	0x3c2d70bf	0.010585963
173	0x3cb3e124	0.021957941
174	0xbacf594e	-0.0015819462
175	0x3c39dda6	0.011344349
176	0xbd29131b	-0.041277986
177	0xbbe585eb	-0.0070044897
178	0xbdafcb25	-0.085836686
179	0x3ccf3f78	0.025298819
180	0x3c8e77ee	0.017391171
181	0x3af9747f	0.0019031911
182	0xbd90aef9	-0.070646234
183	0xbc9f3bd6	-0.019437712
184	0xbb108de9	-0.0022057241
185	0xbce015f2	-0.027354214
186	0xbd2e2e1a	-0.042524435
187	0x3d37e918	0.04490003
188	0x3ca438ee	0.020046677
189	0xbd8a625c	-0.06757042
190	0x3c7bbcdd	0.015364853
191	0xbdb1f7bd	-0.086898305
192	0x3c63b714	0.01389863
193	0x3d8460ff	0.06463813
194	0xbda216d1	-0.07914508
195	0xbd5c0a43	-0.053720724
196	0xbd0be7d4	-0.034156635
197	0xbdd3801f	-0.103271715
198	0x3da06551	0.078318246
199	0xbd717e6e	-0.058958463
200	0x3d1fb588	0.03899148
201	0xbd67d155	-0.05659612
202	0xbd854283	-0.06506827
203	0x3d1a5484	0.037678257
204	0x3cea2c1e	0.02858549
205	0xbd91b0ba	-0.07113786
206	0xbd56d49b	-0.05244885
207	0xbb740027	-0.0037231536
208	0xbd1774a2	-0.036976464
209	0x3d716f82	0.058944233
210	0x3d819d7d	0.06328867
211	0x3db250b3	0.087067984
212	0x3d942ded	0.07235322
213	0xbba300f9	-0.004974481
214	0xbd71d6b2	-0.05904264
215	0x3d06625e	0.032808654
216	0x3d3d1652	0.046163864
217	0xbcbafa0d	-0.022824312
218	0x3bc9c3b3	0.0061573624
219	0x3d8769c9	0.06611974
220	0xbc92811c	-0.01788383
221	0x3c798755	0.01523002
222	0xbcc24cbd	-0.023718232
223	0x3cc03093	0.023460662
224	0xbca84faa	-0.0205458
225	0x3d26a16f	0.0406813
226	0xbce83e10	-0.028349906
227	0x3b85de98	0.004085373
228	0xba8ad981	-0.0010593386
229	0x3dd10b2e	0.102072105
230	0xbd1fa7a6	-0.03897824
231	0x3cf0f395	0.029413024
232	0x3a69aa36	0.0008913608
233	0xbc9083b4	-0.017640926
234	0x3d8fad10	0.07015431
235	0x3d2b0c26	0.041759633
236	0xbc0a7667	-0.008451081
237	0x3d568dba	0.052381255
238	0x3d8c9340	0.06864023
239	0xbb315c5f	-0.0027063114
240	0xbaf49011	-0.0018658658
241	0x3da30c56	0.07961337
242	0x3d92e01b	0.07171651
243	0x3ca94a12	0.020665202
244	0x3c36fff6	0.011169424
245	0xbd9ec4f7	-0.07752412
246	0x3c84145c	0.01612299
247	0xbcec607a	-0.028854597
248	0xbd2318f4	-0.03981872
249	0xbd659ad1	-0.056055848
250	0xbc97e995	-0.018543998
251	0xbca5abd5	-0.020223537
252	0xbc3bc842	-0.011461319
253	0xbbc5a29c	-0.0060313474
254	0x3ce3475b	0.027743986
255	0xbd558338	-0.052127093

bias f4 [32]
0	0x3daf42e0	0.08557677
1	0x3d1e3407	0.038623836
2	0x39e7ce4e	0.00044213462
3	0xbd3b8383	-0.045779716
4	0x3dd2236c	0.102606624
5	0xbd94a3a2	-0.07257773
6	0xbd1b70b5	-0.037949283
7	0x3cf824c4	0.030290969
8	0x3cadd994	0.021221913
9	0xbd55cb63	-0.052195918
10	0x3db85f7f	0.090025894
11	0xbd661f21	-0.05618203
12	0xbdb889c2	-0.0901065
13	0x3cf185bf	0.02948272
14	0x3dc9829b	0.09839364
15	0x3d0af2f4	0.033923104
16	0xbd04b802	-0.032402046
17	0xbde0847d	-0.1096277
18	0xbc1ff20c	-0.009762298
19	0xbcc0014d	-0.02343812
20	0x3dbc7776	0.09202473
21	0xbd30d65d	-0.043173183
22	0xbd86b3d6	-0.0657727
23	0x3d235909	0.039879832
24	0xbd781375	-0.06056543
25	0xbdd3d330	-0.10343015
26	0xbaf23197	-0.0018477914
27	0x3ccfebe0	0.025381029
28	0x3d0d515a	0.03450141
29	0x3d474a21	0.04865468
30	0xbc8cf301	-0.017205717
31	0xbd656670	-0.056005895

weight f4 [32]
0	0x3f7b5210	0.9817209
1	0x3f7e6e5f	0.9938716
2	0x3f807b1c	1.003757
3	0x3f7f0404	0.996155
4	0x3f7d04c7	0.98835415
5	0x3f845665	1.0338866
6	0x3f7e8e2b	0.9943568
7	0x3f7f2507	0.99665874
8	0x3f7d3086	0.98902166
9	0x3f7e4f45	0.99339706
10	0x3f7a4b4e	0.97771156
11	0x3f7e7d01	0.9940949
12	0x3f78c77c	0.9717939
13	0x3f7c2835	0.9849885
14	0x3f7ce39f	0.9878482
15	0x3f80d17b	1.0063928
16	0x3f7a0ffe	0.9768065
17	0x3f79751d	0.97444326
18	0x3f7863b8	0.9702716
19	0x3f7a1651	0.976903
20	0x3f777c32	0.9667388
21	0x3f7c2eb7	0.9850878
22	0x3f7c1417	0.98468155
23	0x3f7ee522	0.9956838
24	0x3f782e2c	0.9694545
25	0x3f7f8db3	0.9982559
26	0x3f7e8c57	0.9943289
27	0x3f809cac	1.0047812
28	0x3f7acee4	0.9797194
29	0x3f7c9ca4	0.98676515
30	0x3f7e91f6	0.9944147
31	0x3f798ad9	0.9747749

bias f4 [32]
0	0x3da6c9f8	0.08143991
1	0xbdb736a5	-0.089459695
2	0xbd7d3699	-0.061819647
3	0x3db28825	0.08717374
4	0x3db9c011	0.09069837
5	0x3d7aeae2	0.061259158
6	0xbdaed283	-0.08536246
7	0xbd9c6349	-0.07636125
8	0xbd86fdc4	-0.06591371
9	0xbda82028	-0.08209258
10	0x3dae935c	0.085242
11	0xbd2756cf	-0.04085427
12	0xbdb57f0e	-0.088621244
13	0x3d410732	0.047126003
14	0x3d9d42d1	0.0767876
15	0x3daec8d3	0.08534398
16	0x3db52ed3	0.08846822
17	0xbdb0b012	-0.08627333
18	0x3d2dcd32	0.042432018
19	0xbdaa3b00	-0.083120346
20	0x3dac8341	0.08423472
21	0xbdac93a0	-0.08426595
22	0xbd872d62	-0.06600453
23	0x3db4b0ba	0.088227704
24	0x3d9e8556	0.077402756
25	0x3befd4f8	0.007319089
26	0xbd53832b	-0.051638763
27	0xbdb60763	-0.08888128
28	0xbd8c1dbf	-0.06841611
29	0x3db9462a	0.09046586
30	0x3d9f310e	0.07773028
31	0xbd6d9195	-0.058000166

running_mean f4 [32]
0	0x3df7788d	0.1208354
1	0x3d206778	0.039161175
2	0x3c958e98	0.01825647
3	0xbc9e1d6c	-0.019301139
4	0x3dbbf2de	0.091771826
5	0xbd5d675f	-0.05405366
6	0xbd801c98	-0.06255454
7	0x3c41098d	0.011782062
8	0xbd028823	-0.03186811
9	0xbd915e7b	-0.07098099
10	0x3dac2fb6	0.08407538
11	0xbd9fd192	-0.07803644
12	0xbdc52f9c	-0.096282214
13	0x3c36df7d	0.011161682
14	0x3dead062	0.11465527
15	0x3d3b15dc	0.045675144
16	0x3bc8e9e8	0.0061313994
17	0xbe0b5a50	-0.1360867
18	0x39c1ffb6	0.00037002348
19	0xbae88f8f	-0.0017742979
20	0x3d92e8e1	0.071733244
21	0xbd5082e7	-0.05090609
22	0xbd88048a	-0.06641491
23	0x3d728867	0.059212115
24	0xbd8fd254	-0.07022539
25	0xbdaee057	-0.08538883
26	0xbc7466c5	-0.01491708
27	0x3d2e9406	0.042621635
28	0x3d3c91e0	0.046037555
29	0x3d989681	0.07450581
30	0xbd5d1086	-0.053970836
31	0xbd69c4b1	-0.057072345

running_var f4 [32]
0	0x3f502dca	0.8131987
1	0x3fc5b2a2	1.544514
2	0x3ea3557a	0.3190115
3	0x3fc4ab12	1.5364707
4	0x3f068cbe	0.52558506
5	0x3eae7d7c	0.34080112
6	0x3f2a2d05	0.66474944
7	0x400bbe0c	2.1834745
8	0x3fc316f8	1.5241385
9	0x3fb426f3	1.4074386
10	0x3f1cc533	0.612384
11	0x3e93ae8e	0.28844112
12	0x3fa25258	1.2681379
13	0x3ef3f5cc	0.47648466
14	0x3f818867	1.0119752
15	0x3fe3811a	1.7773774
16	0x3f95dc18	1.1707792
17	0x4014c836	2.32472
18	0x3e893eb0	0.2680564
19	0x3e9bccd2	0.30429703
20	0x3e892c88	0.26791787
21	0x3fb962ee	1.4483316
22	0x3f508714	0.8145611
23	0x3f880543	1.0626606
24	0x3f9c871e	1.2228734
25	0x3edb0324	0.42775834
26	0x3e626b6b	0.22111289
27	0x3e5d6099	0.2161888
28	0x3ea580ff	0.3232498
29	0x3fc9dc1e	1.57703
30	0x3e1fced2	0.1560624
31	0x3edc0fc5	0.4298078

weight f4 [64, 32, 3, 3]
0	0x3d483325	0.0488769
1	0x3c2b3218	0.010448955
2	0x3d14da10	0.036340773
3	0xbca4beed	-0.020110572
4	0x3d7a7f62	0.061156638
5	0x3d60ceab	0.054884594
6	0xbc04e045	-0.008110111
7	0xbc148e59	-0.009067141
8	0xbba29a72	-0.004962259
9	0xbd3e222c	-0.046419308
10	0x3ce6cb79	0.028173195
11	0x3cc3d2d6	0.023904245
12	0x3cb70e83	0.022345787
13	0xbcb55426	-0.022134852
14	0xbd021443	-0.031757604
15	0xbce919d1	-0.028454693
16	0x3d214083	0.039368164
17	0xbba2c513	-0.0049673407
18	0x3c5e02dd	0.013550487
19	0x3ba4a4ca	0.005024527
20	0xba635744	-0.00086723664
21	0x3cde20aa	0.027115185
22	0x3c1c0e1c	0.009524848
23	0x39a65785	0.00031727194
24	0x3ceb1925	0.028698513
25	0x3a1a016b	0.0005874845
26	0xbd50eecf	-0.051008996
27	0x3d94684e	0.07246457
28	0x3d8e1fa7	0.06939631
29	0xbd1268d3	-0.0357445
30	0x3b81c24c	0.0039599296
31	0xbd2e225d	-0.04251324
32	0x3c5dc938	0.013536744
33	0x3d56740b	0.05235676
34	0xbccc1378	-0.024911627
35	0x3b961a87	0.004580799
36	0xbc0dbd58	-0.0086511
37	0xbd02573b	-0.03182147
38	0xbc589187	-0.01321829
39	0xbc98e3d0	-0.018663317
40	0xb94bfc49	-0.00019453572
41	0x3d54de9e	0.051970117
42	0x3d8048cc	0.06263885
43	0xbcfcdcb2	-0.030866954
44	0x3da3dfc0	0.08001661
45	0x3d8f47d1	0.0699612
46	0x3da5d41e	0.08097099
47	0xbc9a1a6e	-0.01881143
48	0x3d9e50e4	0.077302724
49	0x3d98efb2	0.07467593
50	0x3d018fb7	0.031631198
51	0x3d75b101	0.059983257
52	0x3d3a566d	0.04549258
53	0x3bb06080	0.0053825974
54	0xbce779a0	-0.028256238
55	0xbd6163c9	-0.055026803
56	0x3ca01f78	0.019546255
57	0x3d37964a	0.04482106
58	0x3bb13c69	0.005408813
59	0x3c4cf22e	0.012508912
60	0x3d02c150	0.03192264
61	0xbce7bc11	-0.02828792
62	0xbd3495f0	-0.044088304
63	0xbcebbe3b	-0.028777232
64	0xbca384d8	-0.019960806
65	0xbccca6fe	-0.024981972
66	0x3d390930	0.045174778
67	0xbd66eaea	-0.056376375
68	0x3cadf5b8	0.021235332
69	0xbc598a12	-0.013277547
70	0xbd19280b	-0.037391704
71	0x3c9c1cf8	0.019056782
72	0x3d4a78cd	0.04943161
73	0xbc276c43	-0.010218683
74	0xbba2c7e3	-0.004967676
75	0xbd46d5d5	-0.04854377
76	0x3c9027de	0.017597135
77	0xbb9156fa	-0.0044354172
78	0xbc43a31e	-0.011940746
79	0x3c9c1a3c	0.019055478
80	0x3d4cea4d	0.050028134
81	0xbd77a231	-0.060457412
82	0x3c24a96e	0.010050161
83	0x3bfbfee0	0.0076902956
84	0xbd8326c4	-0.06403878
85	0xbbc9288d	-0.0061388672
86	0x3d4a30ce	0.04936295
87	0x3cb6cf73	0.022315716
88	0x3ccdeb3a	0.025136579
89	0x3d3081e2	0.043092616
90	0x3d29e2f9	0.041476224
91	0x3d2933d0	0.041309178
92	0xbc252b11	-0.010081069
93	0x3d166044	0.0367129
94	0xbd1fc73b	-0.03900836
95	0x3c85a8c6	0.016315829
96	0xbcc020b0	-0.023453087
97	0xbce6d143	-0.028175956
98	0xbc0c35d3	-0.008557755
99	0xbd104a08	-0.03522685
100	0xbc579e51	-0.013160304
101	0x3d4fd0f8	0.050736398
102	0x3c89d599	0.016825484
103	0xbcfd214a	-0.030899663
104	0xbb7150c5	-0.0036821824
105	0xbce2cdfe	-0.027686115
106	0xbd2c1a37	-0.042017188
107	0xba866e86	-0.0010256327
108	0xbb927c20	-0.0044703633
109	0x3c6716a5	0.01410452
110	0x3d280009	0.04101566
111	0xbc1a5f4f	-0.009422137
112	0xbd4c00a5	-0.049805302
113	0x3ba0fbc7	0.0049128267
114	0x3b70d307	0.0036746876
115	0x3c27384c	0.010206293
116	0x3d34fc33	0.04418583
117	0xbb878056	-0.004135172
118	0xbd629fd6	-0.055328213
119	0x3d089b32	0.03335113
120	0x3d3ad4dd	0.04561316
121	0xbc244463	-0.01002607
122	0xbcb0d941	-0.02158797
123	0x3c2dcd68	0.010608055
124	0xbcf5aed3	-0.02999059
125	0x3d184816	0.03717812
126	0x3c001fd3	0.0078200875
127	0x3d15215f	0.03640878
128	0x3d037f9f	0.03210413
129	0x3c4bd6c3	0.01244134
130	0x3ceafec1	0.02868593
131	0x3d59532b	0.05305783
132	0x3d18b6b8	0.03728363
133	0x3d785089	0.06062368
134	0x3d794ef4	0.06086631
135	0x3ceafc60	0.028684795
136	0x3d4695d7	0.048482742
137	0xbb8f95b1	-0.0043818583
138	0x3c27ad3b	0.010234172
139	0xbc6873ce	-0.014187766
140	0x3d93d58d	0.07218466
141	0xbcdce060	-0.02696246
142	0x3d3a95eb	0.04555313
143	0x3d2b18e1	0.041771773
144	0xbc8b610a	-0.017014045
145	0x3d7fafb1	0.06242341
146	0xbcf9c486	-0.030489217
147	0xbc3525f1	-0.011056409
148	0x3c4200ac	0.0118409805
149	0xbb773414	-0.003772025
150	0xbc1fe3d0	-0.009758905
151	0xbd2199de	-0.03945338
152	0x3be6f35c	0.0070480537
153	0x38cd343e	9.7848926e-05
154	0xbc9a9210	-0.018868476
155	0xbd6dfcc0	-0.05810237
156	0xbd2b4183	-0.041810524
157	0xbcd3930f	-0.025826959
158	0x3b2da185	0.0026493978
159	0x3cade76c	0.021228515
160	0xba9f4a98	-0.0012152968
161	0xbd273a1e	-0.04082691
162	0x3b56ea7d	0.0032793575
163	0xbcfe61ce	-0.031052496
164	0x3d68c747	0.05683067
165	0x3d5af8fb	0.053460103
166	0x3c24d01a	0.010059381
167	0xbc55896e	-0.013033254
168	0xbc3072d5	-0.010769566
169	0xbd00342f	-0.031299766
170	0x3ce10fa2	0.027473275
171	0xbc9e4f86	-0.01932503
172	0x3cc1e1c9	0.023667233
173	0xbc87e80e	-0.016590144
174	0xbd03b480	-0.03215456
175	0x3c4c8120	0.012481958
176	0xbc9649f2	-0.018345807
177	0x3d1092d5	0.03529628
178	0xbd440625	-0.047857422
179	0xbc9cd51e	-0.019144591
180	0xbd68c7e2	-0.056831248
181	0xbb124a56	-0.002232214
182	0xbcccb8eb	-0.02499052
183	0x3c510bab	0.0127591295
184	0x3c8ba4fc	0.017046444
185	0x3d1e3d2b	0.038632553
186	0x3c9fad57	0.019491835
187	0x3d3bfcfb	0.045895558
188	0x3aadbece	0.0013255717
189	0x3c978dd7	0.018500252
190	0xbd061607	-0.03273585
191	0x3c330598	0.010926627
192	0xbcbb66ab	-0.022876104
193	0xbc5ae8bb	-0.013361151
194	0xbd15b77d	-0.03655194
195	0x3c81a593	0.015826022
196	0xbd813ff0	-0.06311023
197	0xbd7b6f4a	-0.06138543
198	0xbc9f36e2	-0.01943535
199	0x3bff7744	0.0077962
200	0x3d3f9b68	0.046779066
201	0xbba48388	-0.0050205626
202	0xbd539c7f	-0.05166292
203	0xbc61adef	-0.013774379
204	0xbc6817f4	-0.014165867
205	0x3d598e6c	0.05311434
206	0x3d2939cb	0.04131488
207	0x3d6aeb03	0.05735303
208	0x3d6710a9	0.056412373
209	0xbba6b212	-0.0050871456
210	0xbd4c38e2	-0.049858935
211	0xbbd57fd7	-0.006515484
212	0x3bb79d46	0.0056034653
213	0xbcb94051	-0.022613676
214	0xbc5b840a	-0.01339818
215	0x3cefe3d7	0.029283447
216	0x3b80ec2c	0.003934404
217	0x3d33b967	0.043877985
218	0x3d06db9f	0.03292429
219	0xbd721c4e	-0.059109025
220	0xbcaae846	-0.02086271
221	0x3d075961	0.033044223
222	0x3d0044f9	0.031315777
223	0x3aa32f25	0.0012449963
224	0x3a8b320a	0.0010619771
225	0x3caf6207	0.021409048
226	0xbd881370	-0.066443324
227	0xbcb19c79	-0.021681057
228	0x3cd3afe7	0.025840713
229	0xbd790eae	-0.060805015
230	0x3cb9bb52	0.02267233
231	0xbb8ec29a	-0.0043566944
232	0x3ceb2697	0.028704925
233	0x3b690612	0.0035556597
234	0x3d872349	0.06598527
235	0x3c87f3ed	0.016595805
236	0xbc92eb7e	-0.017934557
237	0x3d119a85	0.035547752
238	0xbcfed44e	-0.031107094
239	0xbd2d7062	-0.042343505
240	0xbcb3e9fe	-0.021962162
241	0x3bd346ad	0.006447634
242	0xbd7fd17a	-0.06245563
243	0xbd665d22	-0.056241162
244	0xbd79ba37	-0.060968604
245	0xbd93fe9b	-0.072262965
246	0xbd976187	-0.07391649
247	0xbd42ea37	-0.047586646
248	0xbc004546	-0.007829016
249	0xbd796449	-0.060886655
250	0xbdb5d9a3	-0.088794015
251	0x3c81fd4f	0.015867857
252	0x3ca58fac	0.02021011
253	0xbd747bdc	-0.059688434
254	0x3d848433	0.064705275
255	0xbcde290c	-0.027119182

bias f4 [64]
0	0x3b736819	0.0037140904
1	0xbd8e8070	-0.06958091
2	0xbda0cf9e	-0.078521
3	0x3d12d81c	0.03585063
4	0x3cd68581	0.026186706
5	0x3d32df6b	0.0436701
6	0x3d1c1001	0.0381012
7	0xbd9ccd65	-0.076563634
8	0x3d9b8088	0.07592875
9	0x3c953b39	0.018216716
10	0x3ca4ede8	0.020132974
11	0x3bed16fa	0.007235405
12	0xbd96ad67	-0.073572926
13	0x3d459326	0.048236035
14	0x3c498e59	0.012302005
15	0xbb92f7e6	-0.004485118
16	0x3b460e57	0.003022095
17	0xbd99630a	-0.07489593
18	0xbd843cb8	-0.06456894
19	0xbd39aa1d	-0.04532825
20	0xbc551563	-0.013005587
21	0xbbe2751e	-0.006910934
22	0x3d00d4d9	0.031452987
23	0x3ce6e535	0.028185466
24	0x3c9128a6	0.017719578
25	0x3ca119a5	0.019665549
26	0x3c92aad3	0.017903721
27	0x3c5501e6	0.013000941
28	0xbd089779	-0.03334758
29	0x3acbc609	0.001554669
30	0x3da58b69	0.08083231
31	0xbbd85244	-0.0066016037
32	0x3c2b3e90	0.010451928
33	0x3d456f24	0.048201695
34	0xbd054dab	-0.032544773
35	0x3ba7e132	0.005123281
36	0xbc3472fe	-0.011013744
37	0x3c90e434	0.01768694
38	0x3d203fcd	0.039123345
39	0x3c58b0ed	0.013225776
40	0xbc7eef60	-0.015560001
41	0xbc841184	-0.016121633
42	0x3c7018a8	0.014654316
43	0xbd6b72c9	-0.057482515
44	0xbd4cf871	-0.05004162
45	0x3abb67f1	0.0014297945
46	0x3c86cbd3	0.016454613
47	0x3daaf2ec	0.08347115
48	0x3caf7a81	0.02142072
49	0x3d84d961	0.06486774
50	0xbcd02514	-0.025408305
51	0x3a438d4e	0.00074597157
52	0x3d7ca835	0.061683852
53	0xbd90f3e8	-0.070777714
54	0x399de5ae	0.00030116498
55	0xbcecf200	-0.028923988
56	0xbd31ef12	-0.043440886
57	0xbcd31ef3	-0.025771594
58	0xbd4e2c8c	-0.050335452
59	0xbccf5225	-0.025307724
60	0x3cd7b5a0	0.026331723
61	0x3d2777c3	0.040885698
62	0xbafb4c65	-0.0019172548
63	0xbbdafccc	-0.0066829678

weight f4 [64]
0	0x3f7f8ae0	0.9982128
1	0x3f7fd78c	0.99938273
2	0x3f78931f	0.9709949
3	0x3f7b37b6	0.98131883
4	0x3f7d4bcf	0.989438
5	0x3f7fe6ec	0.99961734
6	0x3f7f18d0	0.99647236
7	0x3f7e5e30	0.9936247
8	0x3f805f5d	1.0029103
9	0x3f7c2b6f	0.98503774
10	0x3f7ae62d	0.9800747
11	0x3f7b1c7b	0.9809033
12	0x3f7f82a1	0.998087
13	0x3f803932	1.0017455
14	0x3f76d31d	0.96415883
15	0x3f7db8bb	0.9911
16	0x3f7946b5	0.97373515
17	0x3f7f4848	0.9971967
18	0x3f83745c	1.0269885
19	0x3f80f537	1.0074834
20	0x3f7c42db	0.98539513
21	0x3f7f0327	0.99614185
22	0x3f7b4b36	0.9816164
23	0x3f7dbc22	0.9911519
24	0x3f811fb0	1.0087795
25	0x3f7f6a4f	0.9977159
26	0x3f7aad3f	0.979206
27	0x3f7ecc69	0.99530655
28	0x3f79e0db	0.9760873
29	0x3f7fc07c	0.9990308
30	0x3f8044ba	1.0020974
31	0x3f8706ab	1.054891
32	0x3f800db9	1.0004188
33	0x3f7fed70	0.99971676
34	0x3f7f63dc	0.9976175
35	0x3f78ec24	0.9723532
36	0x3f780965	0.96889335
37	0x3f7ac30f	0.97953886
38	0x3f7e14cd	0.9925049
39	0x3f7f0375	0.9961465
40	0x3f800c2c	1.0003715
41	0x3f7feccd	0.99970704
42	0x3f7fa632	0.9986297
43	0x3f7ccf23	0.98753566
44	0x3f81f8b7	1.0154027
45	0x3f7fd8e2	0.9994031
46	0x3f7fa159	0.9985557
47	0x3f7a7561	0.97835356
48	0x3f807c8e	1.0038011
49	0x3f80b4e9	1.0055209
50	0x3f7a827c	0.97855353
51	0x3f7e993d	0.99452573
52	0x3f7cdced	0.98774606
53	0x3f8032f6	1.0015552
54	0x3f7e4a6b	0.993323
55	0x3f7b2b71	0.9811316
56	0x3f7ea09a	0.9946381
57	0x3f77636c	0.9663608
58	0x3f79735b	0.97441643
59	0x3f798b88	0.9747853
60	0x3f7fbb5b	0.99895257
61	0x3f805dca	1.0028622
62	0x3f7f5a9a	0.9974762
63	0x3f8044cd	1.0020996

bias f4 [64]
0	0x3d9d0251	0.076664574
1	0xbdb8d239	-0.09024472
2	0xbda2f4c1	-0.07956839
3	0x3daf412e	0.08557354
4	0x3d9b1254	0.07571855
5	0x3d8f31aa	0.069918945
6	0x3d4584e9	0.048222456
7	0xbd9763c7	-0.07392078
8	0x3db9c8c3	0.090714954
9	0x3dbce82b	0.0922397
10	0xbdaea6f3	-0.08527937
11	0xbdb6e8d9	-0.08931131
12	0xbdb49c11	-0.0881883
13	0x3db8c67c	0.09022233
14	0x3d8bbb92	0.068228856
15	0xbdb87c4b	-0.09008082
16	0xbd9fa223	-0.07794597
17	0xbdb8cd43	-0.090235256
18	0x3c01eec0	0.007930458
19	0xbd843fb9	-0.06457467
20	0x3dae2c0a	0.085044935
21	0xbdb654ea	-0.08902915
22	0x3d9273af	0.07150971
23	0x3da6d98b	0.08146962
24	0x3d8bf12b	0.068331085
25	0xbd9e8bae	-0.077414855
26	0x3d8e990d	0.06962786
27	0x3db6b345	0.08920912
28	0xbdb672d7	-0.08908623
29	0x3d8cbfc1	0.06872512
30	0x3dc0e3ad	0.09418426
31	0x3da5c345	0.08093885
32	0xbd180ded	-0.037122656
33	0x3db85e79	0.09002394
34	0x3db889cd	0.090106584
35	0xbdb754ca	-0.08951719
36	0x3da2dc99	0.07952232
37	0x3da765d0	0.08173716
38	0x3db2138b	0.08695134
39	0x3dc03b1b	0.093862735
40	0xbd9dad0a	-0.0769902
41	0xbda2d433	-0.0795063
42	0xbdbc1431	-0.09183539
43	0xbdb5b458	-0.088722885
44	0xbdae44e5	-0.08509234
45	0x3db76ed8	0.08956689
46	0xbdb059bb	-0.08610865
47	0x3dace33f	0.08441781
48	0x3dbbb340	0.091650486
49	0x3db5218e	0.08844291
50	0x3d94143b	0.07230421
51	0x3daf343c	0.08554885
52	0x3dba9f5c	0.09112427
53	0xbdb86cf7	-0.090051584
54	0x3d966962	0.07344319
55	0xbd4d42e6	-0.050112627
56	0xbdb922b0	-0.09039819
57	0xbd8bcd84	-0.06826308
58	0xbd942a8d	-0.072346784
59	0xbd955e14	-0.072933346
60	0xbdb90557	-0.090342216
61	0x3db8ad9e	0.0901749
62	0xbdaba603	-0.083812736
63	0x3daf8a35	0.08571283

running_mean f4 [64]
0	0x3db9ed25	0.09078435
1	0xbe0a2aa4	-0.13492829
2	0xbdf3d9d0	-0.11906779
3	0x3db1bd61	0.08678699
4	0x3dd01727	0.10160666
5	0x3db43f8f	0.08801185
6	0x3dbec96d	0.09315763
7	0xbe032eb3	-0.12810783
8	0x3e28c9e7	0.1648327
9	0x3d4f7096	0.05064448
10	0xbd2218ef	-0.03957456
11	0xbd44e469	-0.04806939
12	0xbe0d1395	-0.13777001
13	0x3de7a3ad	0.113105156
14	0x3cb4d12a	0.022072393
15	0xbdb7b365	-0.08969764
16	0xbd117280	-0.035509586
17	0xbe1f4011	-0.15551783
18	0x3b868d5c	0.004106207
19	0xbd28a430	-0.041172206
20	0xbdb277e1	-0.08714271
21	0xbd96ccda	-0.07363291
22	0x3de16bf7	0.11006921
23	0x3cd90b1c	0.026494555
24	0xbd13e94e	-0.03611117
25	0xbd908793	-0.07057109
26	0x3d8729ab	0.065997444
27	0x3dc04d40	0.09389734
28	0xbdbdad42	-0.09261562
29	0x3d24b53f	0.040211912
30	0x3d690660	0.056890845
31	0x3d135698	0.035971254
32	0xbd30507a	-0.0430455
33	0x3df3410a	0.118776396
34	0x3cded73d	0.027202243
35	0x3c9e1638	0.019297704
36	0x3cf889ba	0.03033911
37	0x3d002551	0.031285588
38	0xbcbb784f	-0.022884516
39	0xbd52a8a5	-0.051430363
40	0xbde624b2	-0.11237468
41	0xbdb1f099	-0.086884685
42	0xbd59d09a	-0.053177454
43	0xbe1d9fab	-0.1539294
44	0xbc7a9c43	-0.015296045
45	0x3da50f59	0.08059568
46	0xbd47a923	-0.048745286
47	0x3e05e0e8	0.13074076
48	0x3dc55fff	0.096374504
49	0x3cea1dbd	0.028578633
50	0xbdc45b4c	-0.09587726
51	0x3d58c22f	0.052919563
52	0x3e111ee3	0.14171939
53	0xbe168fb8	-0.14703262
54	0x3dbb6e79	0.0915193
55	0x3d8a47c2	0.06751968
56	0xbe0f8b36	-0.14017949
57	0xbd65872d	-0.056037117
58	0xbdcbd790	-0.09953225
59	0xbd1f21de	-0.038850658
60	0xbd046347	-0.03232124
61	0x3dbc706f	0.092011325
62	0xbd664fc9	-0.056228433
63	0x3d872a2e	0.06599842

running_var f4 [64]
0	0x404ce47c	3.2014456
1	0x408529a7	4.1613345
2	0x400552a2	2.0831685
3	0x4017b556	2.3704429
4	0x40588ad8	3.3834743
5	0x404208e9	3.0317938
6	0x40266753	2.6000564
7	0x40612a20	3.518196
8	0x40441b7b	3.0641773
9	0x3ff7cdbe	1.9359663
10	0x4002f72a	2.0463357
11	0x401493d0	2.3215218
12	0x401db418	2.464117
13	0x404b5d00	3.1775513
14	0x3f09fc6d	0.53900796
15	0x409412d1	4.627297
16	0x403308f3	2.7974212
17	0x4033eee9	2.811457
18	0x3f1201b5	0.57033855
19	0x3ebad484	0.36490262
20	0x3fd61e54	1.6728005
21	0x408fb26b	4.4905295
22	0x4047cad8	3.1217556
23	0x3f42028e	0.7578515
24	0x3ee4b07d	0.446659
25	0x40611f14	3.5175219
26	0x3f1bcc80	0.6085892
27	0x407cc057	3.9492395
28	0x4055de0b	3.3416774
29	0x4005ef69	2.0927374
30	0x3ee38a28	0.44441342
31	0x3f48fabc	0.7850759
32	0x3fe31b20	1.7742653
33	0x40211a63	2.5172355
34	0x4091e69e	4.5594015
35	0x3f0f2bb4	0.5592606
36	0x402ed755	2.7318928
37	0x3f5e2ccf	0.8678712
38	0x3f8867a9	1.0656635
39	0x3f001983	0.5003893
40	0x40b4876d	5.6415315
41	0x40b119af	5.534385
42	0x40a4d830	5.15139
43	0x408e145e	4.439986
44	0x3f357127	0.7087578
45	0x404804a9	3.1252844
46	0x40aa2ccd	5.317969
47	0x3fe847fd	1.8146969
48	0x40a5821d	5.172133
49	0x3efccbe3	0.49374303
50	0x400b58a6	2.1772857
51	0x40b9d8c7	5.807712
52	0x40a74ae6	5.227893
53	0x405809ac	3.3755903
54	0x409641a0	4.695511
55	0x404026bd	3.0023644
56	0x408add75	4.3395333
57	0x40224c32	2.5359006
58	0x40719066	3.7744384
59	0x40295145	2.6455853
60	0x4082837a	4.0785494
61	0x403e67fe	2.9750972
62	0x40690eb4	3.6415224
63	0x4005c60c	2.0902128

weight f4 [128, 64, 3, 3]
0	0x3cde2590	0.02711752
1	0xbcb34e22	-0.021887843
2	0x3b61f0a1	0.0034475701
3	0x3c98300a	0.018577594
4	0xbd3ee502	-0.046605118
5	0xbc3af257	-0.011410317
6	0xbd248006	-0.040161155
7	0xbb4caf17	-0.0031232291
8	0x3c10a991	0.00882949
9	0x3c268ee1	0.010165901
10	0x3d407e4a	0.04699544
11	0xbcac9415	-0.021066705
12	0x3d184b43	0.03718115
13	0xbbed0af1	-0.0072339703
14	0xbcc8b385	-0.024499664
15	0xbce2e18a	-0.027695436
16	0x3b7b0b51	0.0038306306
17	0xbcca7d36	-0.024717908
18	0xbcd47b94	-0.025937833
19	0x3cd5d61c	0.026103072
20	0xbb8366fb	-0.004010079
21	0xba1bf55a	-0.0005949341
22	0x3d06a391	0.032870833
23	0xbc8f64b5	-0.017504076
24	0xbcd7aa23	-0.026326245
25	0xbcd2c4c3	-0.025728589
26	0x3c8d02e4	0.017213292
27	0x3cfcb1e9	0.030846553
28	0xbc6e47b8	-0.014543466
29	0x3c732040	0.014839232
30	0x3c6809e1	0.014162512
31	0x3c61c03e	0.013778744
32	0x3c675ed0	0.014121726
33	0x3bdddc7f	0.00677067
34	0xbd35bd50	-0.044369996
35	0xbcae80ab	-0.021301588
36	0x3d0c48f7	0.034249272
37	0xbd2f2c39	-0.042766783
38	0xbc0e793e	-0.008695899
39	0xbce58a3d	-0.028020019
40	0xbd1edac3	-0.038782846
41	0x3c4be335	0.012444307
42	0xbbc3d900	-0.005976796
43	0xbc4c9a9f	-0.012488036
44	0xbae21e74	-0.0017251507
45	0xbb7c671d	-0.0038513609
46	0xbc6eca9d	-0.014574674
47	0x3c8a10fb	0.0168538
48	0xbcb89242	-0.022530679
49	0x3cc5f089	0.024162548
50	0x3ce12fbc	0.027488582
51	0x3cae8281	0.021302463
52	0xbd0a53fd	-0.033771504
53	0xbc140d0a	-0.009036312
54	0x3d66ea81	0.056375984
55	0xbc2868da	-0.010278905
56	0x3cc05eed	0.023482764
57	0xbc1add07	-0.009452111
58	0x3c247ceb	0.010039548
59	0x3cfde0bd	0.030990953
60	0xbc3cb33f	-0.011517345
61	0x3d0066fe	0.03134822
62	0xbc8265e0	-0.015917718
63	0x3ba14c96	0.00492246
64	0x3b30243a	0.0026877061
65	0x3cfc5d90	0.030806333
66	0x3c2e0d19	0.01062324
67	0xbcb38332	-0.021913145
68	0xbc72549e	-0.014790682
69	0xbbd55ede	-0.006511553
70	0x3cde8fd8	0.0271682
71	0x3cbbde5c	0.022933178
72	0x3ceb306c	0.028709613
73	0xbc04c571	-0.008103714
74	0xbd2f8e2c	-0.042860195
75	0xbcc7ff2f	-0.024413673
76	0xbd5450a8	-0.051834732
77	0xbc2ff536	-0.010739615
78	0x3c879233	0.016549205
79	0xbc388b65	-0.011263703
80	0xbd3d41c0	-0.046205282
81	0xbc205f18	-0.009788297
82	0x3c688894	0.014192719
83	0x3c906445	0.017625937
84	0xbc50cec7	-0.012744612
85	0x3c29f19b	0.010372545
86	0xbb161a28	-0.0022903774
87	0x3c41dd23	0.011832508
88	0xbc61c4ae	-0.013779802
89	0xbcb45023	-0.022010868
90	0xbcedf26f	-0.029046265
91	0xbcbc99f6	-0.023022633
92	0xbcd9dc7f	-0.026594399
93	0xbcd6a6c4	-0.026202567
94	0x3d40c4c9	0.04706267
95	0x3d474785	0.04865219
96	0xbc9725f0	-0.018450707
97	0x3d254a63	0.040354144
98	0x3c619964	0.013769481
99	0xbccdc690	-0.025119096
100	0x3d1b0f2c	0.037856266
101	0xbcbdb943	-0.023159629
102	0xbc72b80b	-0.014814387
103	0x3d282f58	0.041060776
104	0x3c68570a	0.014180908
105	0x3cff4896	0.031162541
106	0x3ce4520b	0.027871152
107	0xbd0bd84e	-0.03414183
108	0x3c6a55d5	0.0143026905
109	0x3c94a130	0.018143266
110	0xbbda265b	-0.0066574044
111	0xbb9014e6	-0.0043970225
112	0x3d4cddb1	0.05001611
113	0x3cf38077	0.029724343
114	0xbcbd6b28	-0.023122385
115	0x3d24b92a	0.04021565
116	0x3c9e20dc	0.019302778
117	0xbd340979	-0.043954346
118	0xbcabce55	-0.02097241
119	0x3b53b4b1	0.0032303745
120	0xbd316122	-0.043305524
121	0xbca67054	-0.020317234
122	0xbcc64acd	-0.02420559
123	0x3cda476c	0.026645385
124	0xbd069187	-0.03285363
125	0xbcedbc33	-0.029020404
126	0xbcd3addd	-0.02583974
127	0x3c9b4c7d	0.01895737
128	0xbc594ea6	-0.01326338
129	0x3c1d213e	0.009590445
130	0x3c610b3d	0.01373559
131	0x3c33b7e9	0.010969141
132	0x3cc74c3f	0.02432835
133	0x3b2b87f2	0.002617356
134	0xbc02308f	-0.007946148
135	0x3cf6fbd6	0.030149382
136	0x3c010771	0.007875309
137	0x3cc45ad7	0.023969097
138	0x3d18e400	0.037326813
139	0x3cb25563	0.021769231
140	0x3c1e4013	0.009658831
141	0xbc10bb9f	-0.008833795
142	0x3bb0b17d	0.005392252
143	0x3c90fd72	0.017698977
144	0x3cc96e61	0.024588766
145	0x3c00c79a	0.007860089
146	0xbc051b08	-0.0081241205
147	0x3d37e937	0.044900145
148	0xbc821be0	-0.015882432
149	0x3d2e48bb	0.04254983
150	0x3c522e64	0.012828443
151	0xbc99a577	-0.018755658
152	0x3a204d07	0.00061149936
153	0xbca9e032	-0.020736787
154	0xbd053fdb	-0.0325316
155	0x3d2bede3	0.041974913
156	0x3d059ab0	0.032618225
157	0x3ca43547	0.020044936
158	0x3c38ecf9	0.011286967
159	0x3d3980f3	0.04528899
160	0x3c895cd9	0.016767906
161	0xbc83fd73	-0.016112065
162	0xbd9c4c18	-0.07631701
163	0xbc7172b9	-0.014736825
164	0x3a3804bf	0.000701975
165	0xbd3baa62	-0.045816787
166	0x3b23fe62	0.002502345
167	0x3ca5cfa4	0.020240612
168	0x3cdfafe7	0.027305556
169	0x3d97b3f5	0.07407371
170	0x3d18bcc2	0.03728939
171	0xbda72a74	-0.08162394
172	0x3cef6ee2	0.029227678
173	0x3c3fca14	0.011705894
174	0xbd4e89cd	-0.050424386
175	0xbccbcc77	-0.02487777
176	0x3cce37c3	0.025173074
177	0xbd7d2726	-0.061804913
178	0x3c5e874e	0.013582064
179	0xbc0d52ff	-0.008625745
180	0xbd20caec	-0.03925602
181	0xbc2ebc1e	-0.010664968
182	0xbd0c2370	-0.034213483
183	0xbca52a0d	-0.020161653
184	0xbc4389f2	-0.011934744
185	0xbcd608a5	-0.026127169
186	0x3d0039ac	0.031305
187	0xbcd86573	-0.026415562
188	0xbc38989c	-0.011266854
189	0xbb3908bd	-0.0028233968
190	0x3d29d6de	0.04146468
191	0xbc9c51ba	-0.019081939
192	0x3cbb23e4	0.022844262
193	0x3d41553e	0.047200434
194	0xbcef78e1	-0.029232444
195	0xbc90ead3	-0.017690098
196	0x3d31bca7	0.043392804
197	0xbc4791a3	-0.012180719
198	0x3bfa61fa	0.0076410742
199	0xbb81c5d9	-0.003960353
200	0xbb8272a5	-0.003980952
201	0xbc89b9ed	-0.01681229
202	0xbb8d976a	-0.0043210285
203	0xbd04ec30	-0.03245181
204	0x3c121e2c	0.008918326
205	0x3cb70abd	0.022343988
206	0x3d1589f4	0.036508515
207	0x3d050559	0.032475803
208	0x3d1c87cd	0.038215447
209	0x3d12d23b	0.035845023
210	0x3b9bb3a3	0.004751639
211	0x3cc0d350	0.023538262
212	0xbc6b5b32	-0.014365004
213	0xbb80e6fe	-0.0039337864
214	0xbcd0e52b	-0.0254999
215	0xbcae6c8b	-0.021291992
216	0x3d01ffd1	0.031738106
217	0x3c536fb9	0.012905055
218	0xbd08d243	-0.033403646
219	0x3cdf0820	0.027225554
220	0xbc869aee	-0.016431298
221	0xbc884c6b	-0.016638001
222	0x3d190b64	0.03736438
223	0xbc986ff2	-0.018608067
224	0xbd924429	-0.07141907
225	0x3c58295e	0.013193456
226	0x3b0b18db	0.0021224532
227	0x3cb62ed1	0.02223912
228	0x3d1a08af	0.037605938
229	0xbc3f1d1e	-0.011664657
230	0xbc9f96cc	-0.019481085
231	0xbcd291ea	-0.025704343
232	0x3c4cca73	0.0124994395
233	0x3cc2f3b2	0.023797844
234	0x3c9ff884	0.019527681
235	0xbd94fc87	-0.07274728
236	0x3c51e198	0.012810133
237	0xbceae11a	-0.02867179
238	0xbbb97f5a	-0.0056609334
239	0xbc587b03	-0.013212922
240	0xbc21448f	-0.009843006
241	0xbc4bca04	-0.012438301
242	0x3d61be10	0.0551129
243	0xbc03ebab	-0.008051793
244	0x3bab338a	0.00522465
245	0xbba75ba7	-0.0051073614
246	0xbcc35aa3	-0.02384693
247	0x3ccc2dbc	0.024924152
248	0xbcc8ed8c	-0.024527334
249	0x3c25f52e	0.010129256
250	0x3c6143db	0.013749088
251	0xbaedb0c4	-0.0018134345
252	0x3d23d6d0	0.039999783
253	0x3c9ecfe5	0.019386241
254	0x3bef59d9	0.007304412
255	0xbb06e7c1	-0.0020584913

bias f4 [128]
0	0x3baaae7d	0.005208789
1	0x3da16c9e	0.07882045
2	0x3ccbe0e2	0.024887506
3	0xbbbefe10	-0.0058286265
4	0x3d090665	0.033453364
5	0x3d6f1bd0	0.058376133
6	0xbd08f2bb	-0.03343461
7	0x3d33a6b4	0.043860152
8	0x3dadb778	0.084822595
9	0xbdadf5ec	-0.084941715
10	0x3d8fdeb0	0.07024896
11	0x3cdd4b5c	0.027013473
12	0x3d1bccc2	0.03803707
13	0x3d89dc45	0.06731466
14	0xbd204422	-0.039127477
15	0xbd4f6c4f	-0.0506404
16	0xbc42b964	-0.011885021
17	0xbd8a8933	-0.0676445
18	0x3bde1b2f	0.006778143
19	0xbd54f51f	-0.05199158
20	0x3d2755a5	0.04085316
21	0x3d2188d8	0.039437145
22	0x3c9ca770	0.01912281
23	0x3a26dfe5	0.00063657603
24	0xbd006e53	-0.031355213
25	0x3c5f3af6	0.013624897
26	0x3d829ceb	0.06377586
27	0xbba8aafb	-0.0051473356
28	0xbd3caec7	-0.04606512
29	0xbd2a53d8	-0.041583866
30	0x3b904e7f	0.0044038887
31	0xbbba3a87	-0.0056832465
32	0x3d676287	0.056490447
33	0x3c216b8e	0.009852303
34	0x3d17c6d4	0.03705485
35	0xbd263090	-0.040573657
36	0x3d563eb1	0.05230588
37	0xbd9e52f4	-0.07730666
38	0xbbac18ad	-0.005251965
39	0x3cdd683c	0.027027242
40	0xbd1cfdaa	-0.03832785
41	0x3ce592cf	0.028024105
42	0xbd33dbc3	-0.043910753
43	0xbcdefa8f	-0.027219085
44	0x3d2a709d	0.041611303
45	0xbd41b53a	-0.04729197
46	0x3d809f97	0.06280439
47	0x3d8e48fe	0.06947516
48	0xbd116e36	-0.035505496
49	0x3d179a42	0.037012346
50	0xbc66cebb	-0.014087374
51	0x3cf6fd1d	0.03014999
52	0x3c778e22	0.015109571
53	0x3bd48e2f	0.006486676
54	0xbd023d40	-0.031796694
55	0xbb829da0	-0.0039860755
56	0x3c56fb9e	0.013121514
57	0x3cbc57dc	0.022991113
58	0x3d007e97	0.031370725
59	0xbbdc6ec4	-0.0067270715
60	0xbd606190	-0.054780543
61	0x3d6c98b8	0.05776283
62	0xbbf11b5a	-0.007357997
63	0xbd9de0c0	-0.07708883
64	0xbd8f5da8	-0.070002854
65	0xbc3fb92e	-0.011701865
66	0xbcdb5dba	-0.02677809
67	0xbd28a81e	-0.041175954
68	0xbce45d3b	-0.027876487
69	0xbd061e0f	-0.03274351
70	0x3d5f33b8	0.054492682
71	0x3d8a6de9	0.06759245
72	0x3cabd45f	0.02097529
73	0xbdabe215	-0.08392731
74	0xbd68fea0	-0.056883454
75	0xbd15f95c	-0.03661476
76	0xbd2601da	-0.04052911
77	0xbcf4506d	-0.029823506
78	0xbbca2441	-0.0061688726
79	0x3d9c8c92	0.07643999
80	0xbd63eacf	-0.055643853
81	0xbd28cec7	-0.041212823
82	0xbc571206	-0.013126856
83	0xbccf3bc3	-0.025297051
84	0x3d7430cc	0.05961685
85	0x3d55b4c9	0.052174363
86	0x3b46e7e2	0.0030350615
87	0xbce79b16	-0.028272193
88	0xbb3fdb9f	-0.0029275191
89	0xbb86167b	-0.0040920353
90	0x3d4d5500	0.05012989
91	0x3d6b2f7a	0.057418324
92	0xbc73ce61	-0.0148807475
93	0x3d5f9c70	0.05459255
94	0x3b87dda3	0.004146294
95	0x3d73692a	0.059426464
96	0x3d300bea	0.042980112
97	0xbca57a79	-0.020200001
98	0xbcfa7cfe	-0.030577179
99	0xbd6fa6b0	-0.058508575
100	0x3d0fc131	0.03509635
101	0xbd1b700c	-0.037948653
102	0xbc0277f7	-0.007963172
103	0x3c02a7ce	0.007974578
104	0xbbdbee4b	-0.0067117563
105	0xbbe8ee98	-0.0071085207
106	0x3d656897	0.056007948
107	0x3b8cec49	0.0043006283
108	0xbc774427	-0.015091932
109	0xbc827f5b	-0.015929868
110	0xbd3410b5	-0.043961246
111	0xbc9e3598	-0.019312665
112	0xbc0cd259	-0.008595073
113	0xbd181de8	-0.037137896
114	0xbc69ca91	-0.014269487
115	0x3c328fe3	0.010898563
116	0xbda50f9c	-0.08059618
117	0xbd15627f	-0.036470886
118	0x3d69ec86	0.057110332
119	0xbd4c65cb	-0.049901765
120	0x3c94391c	0.018093638
121	0x3cf0d2eb	0.029397449
122	0x3caf70f1	0.02141616
123	0xbd6d6267	-0.057955172
124	0x3d82e3cc	0.06391105
125	0xbbde6f43	-0.006788166
126	0x3d6d83c5	0.057986993
127	0x3d90cf52	0.07070793

weight f4 [128]
0	0x3f8594fd	1.0436093
1	0x3f856e07	1.0424203
2	0x3f85ca6e	1.0452402
3	0x3f85c56e	1.0450876
4	0x3f856c4e	1.0423677
5	0x3f85cdbe	1.0453413
6	0x3f855a51	1.0418187
7	0x3f84fda1	1.0389901
8	0x3f860dda	1.0472977
9	0x3f8612f7	1.0474538
10	0x3f84da9f	1.0379218
11	0x3f858e7d	1.0434109
12	0x3f85c17b	1.044967
13	0x3f85f721	1.0466043
14	0x3f85eec7	1.0463494
15	0x3f85007b	1.0390772
16	0x3f853af1	1.0408612
17	0x3f84f91d	1.0388523
18	0x3f85b4d0	1.0445805
19	0x3f852b43	1.0403827
20	0x3f85b11f	1.0444678
21	0x3f85bcfa	1.0448296
22	0x3f86258b	1.0480207
23	0x3f85455c	1.0411792
24	0x3f85b3af	1.044546
25	0x3f85d909	1.0456859
26	0x3f861038	1.04737
27	0x3f85c8d9	1.0451919
28	0x3f85f429	1.0465137
29	0x3f8557be	1.0417402
30	0x3f853ed6	1.0409801
31	0x3f85bb34	1.0447755
32	0x3f85a2ae	1.0440271
33	0x3f8607d7	1.0471143
34	0x3f848624	1.0353436
35	0x3f8595ae	1.0436304
36	0x3f856db5	1.0424105
37	0x3f856069	1.0420047
38	0x3f85d847	1.0456628
39	0x3f85678c	1.0422225
40	0x3f848e54	1.0355935
41	0x3f85a3ae	1.0440576
42	0x3f853dc1	1.0409471
43	0x3f85303b	1.0405344
44	0x3f85ad8f	1.0443591
45	0x3f83662e	1.0265558
46	0x3f855e3e	1.0419385
47	0x3f85bd2f	1.0448359
48	0x3f858428	1.0430956
49	0x3f85ffdf	1.0468711
50	0x3f84fbb4	1.0389314
51	0x3f86041d	1.0470005
52	0x3f85dd21	1.0458108
53	0x3f857844	1.0427327
54	0x3f845719	1.033908
55	0x3f85c525	1.0450789
56	0x3f84995e	1.0359304
57	0x3f84e59e	1.0382574
58	0x3f85a7b1	1.04418
59	0x3f85e37e	1.046005
60	0x3f86093a	1.0471566
61	0x3f857689	1.0426799
62	0x3f8634cb	1.0484861
63	0x3f858677	1.043166
64	0x3f85f9f3	1.0466903
65	0x3f84fb44	1.038918
66	0x3f85406c	1.0410285
67	0x3f859e0c	1.0438857
68	0x3f85855a	1.0431321
69	0x3f85d41b	1.0455354
70	0x3f857573	1.0426468
71	0x3f86011e	1.0469091
72	0x3f855df8	1.0419302
73	0x3f85ad79	1.0443565
74	0x3f85b1e3	1.0444912
75	0x3f84c8b3	1.0373749
76	0x3f85f661	1.0465814
77	0x3f84e1d2	1.0381415
78	0x3f854094	1.0410333
79	0x3f85ba82	1.0447543
80	0x3f85ba68	1.0447512
81	0x3f85cf45	1.0453879
82	0x3f8544dd	1.041164
83	0x3f85c6b0	1.045126
84	0x3f8562d7	1.0420789
85	0x3f861cf4	1.0477586
86	0x3f85d8d1	1.0456792
87	0x3f857f83	1.0429538
88	0x3f85cc1e	1.0452917
89	0x3f85a664	1.0441403
90	0x3f853b51	1.0408727
91	0x3f846586	1.0343482
92	0x3f85ca5d	1.0452381
93	0x3f859b4e	1.043802
94	0x3f8604fc	1.0470271
95	0x3f855a2b	1.0418142
96	0x3f853114	1.0405602
97	0x3f85a8a3	1.0442089
98	0x3f8539a7	1.0408219
99	0x3f858e63	1.0434078
100	0x3f856645	1.0421835
101	0x3f8465ef	1.0343608
102	0x3f85d2ff	1.0455016
103	0x3f85cd69	1.0453311
104	0x3f85a138	1.0439825
105	0x3f85ed97	1.0463132
106	0x3f84d37c	1.037704
107	0x3f855786	1.0417335
108	0x3f859e33	1.0438904
109	0x3f85741a	1.0426056
110	0x3f85cf36	1.0453861
111	0x3f85eee3	1.0463527
112	0x3f85f268	1.0464602
113	0x3f85e7b1	1.0461332
114	0x3f86260d	1.0480362
115	0x3f85d442	1.0455401
116	0x3f85a327	1.0440415
117	0x3f853e59	1.0409652
118	0x3f858028	1.0429735
119	0x3f85aca2	1.0443308
120	0x3f84d248	1.0376673
121	0x3f84bcee	1.0370157
122	0x3f85c507	1.0450753
123	0x3f856a86	1.0423133
124	0x3f85a2de	1.0440328
125	0x3f861464	1.0474973
126	0x3f861c8d	1.0477463
127	0x3f859119	1.0434905

bias f4 [128]
0	0xbdb3b733	-0.08775177
1	0x3db1122c	0.08646044
2	0x3db213db	0.086951934
3	0xbdae0529	-0.08497078
4	0x3db2b2a8	0.08725482
5	0x3db2d5ba	0.08732171
6	0xbdac0b9f	-0.08400654
7	0x3da3cf51	0.07998527
8	0x3db28c6f	0.08718192
9	0xbdb4168d	-0.08793364
10	0x3db0e44c	0.08637294
11	0x3db361b7	0.08758872
12	0x3daffb33	0.08592834
13	0x3db118fa	0.08647342
14	0xbdb16020	-0.086609125
15	0xbdb5a5bd	-0.08869503
16	0xbdb0e1e8	-0.08636838
17	0xbdb4990b	-0.08818253
18	0x3db0672a	0.08613427
19	0xbdb3ea41	-0.08784915
20	0x3daf531c	0.08560774
21	0x3daeab8e	0.08528815
22	0x3dac4dbe	0.08413266
23	0x3db516e6	0.08842258
24	0xbdb3724c	-0.08762035
25	0x3dafef78	0.08590597
26	0x3db27449	0.08713586
27	0x3db1d419	0.086830325
28	0xbdb376be	-0.08762883
29	0xbdaac227	-0.08337813
30	0x3daf1162	0.085482374
31	0xbdb03f44	-0.08605817
32	0x3dafd691	0.08585847
33	0x3dad3739	0.084577985
34	0x3db57dc0	0.088618755
35	0xbdb48044	-0.08813527
36	0x3daa137e	0.08304499
37	0xbdb3647c	-0.087594
38	0xbda66f9c	-0.081267565
39	0x3dafdcc6	0.08587031
40	0xbdb4d872	-0.08830346
41	0x3daf0a8d	0.08546934
42	0xbdae0b17	-0.08498209
43	0xbdb01c8d	-0.08599196
44	0x3daf96ab	0.085736595
45	0xbdb2dc10	-0.0873338
46	0x3db3db04	0.08782008
47	0x3db10f9f	0.086455576
48	0xbdb3ed78	-0.08785528
49	0x3db1488c	0.08656415
50	0xbdae40e3	-0.0850847
51	0x3db2af57	0.0872485
52	0x3db2617e	0.087100014
53	0x3db528d8	0.08845681
54	0xbd94a955	-0.0725886
55	0xbdafce27	-0.08584242
56	0x3db18182	0.0866728
57	0x3db36b35	0.087606825
58	0x3dadf7e4	0.08494547
59	0xbdb28209	-0.087162085
60	0xbdb2bf56	-0.08727901
61	0x3daa8cb1	0.08327616
62	0xbdb34a4d	-0.08754406
63	0xbdae38e1	-0.085069425
64	0xbd9f50a3	-0.07779052
65	0xbdb135b2	-0.0865282
66	0xbdb1ccf6	-0.08681671
67	0xbdb3b134	-0.08774033
68	0xbdae1501	-0.085001
69	0xbdb0856d	-0.08619199
70	0x3dac0ce9	0.084009
71	0x3db226f8	0.08698839
72	0x3db5c8aa	0.08876164
73	0xbdb4090d	-0.08790789
74	0xbdafc73b	-0.08582922
75	0xbda7693f	-0.08174371
76	0xbdb102aa	-0.08643086
77	0xbdb4a697	-0.08820837
78	0xbdb51294	-0.08841434
79	0x3db4b516	0.08823602
80	0xbdb3369f	-0.087506525
81	0xbdb2f5f3	-0.08738317
82	0x3daf1943	0.0854974
83	0xbdb1a4ad	-0.086739875
84	0x3dacb71b	0.08433362
85	0x3db30369	0.08740885
86	0xbdb261de	-0.08710073
87	0xbdb074d6	-0.08616035
88	0xbdb3eb9b	-0.087851726
89	0x3daf7b48	0.08568436
90	0x3db22760	0.086989164
91	0x3db4eb44	0.08833936
92	0xbdb002ac	-0.085942596
93	0x3daac782	0.08338834
94	0x3db2b21e	0.087253794
95	0x3db46287	0.08807855
96	0x3db06f4d	0.08614979
97	0xbdadb0fc	-0.08481023
98	0xbdb2db22	-0.087332025
99	0xbdabedf3	-0.083949946
100	0x3db33d33	0.08751907
101	0xbdb565cf	-0.08857309
102	0x3db2515e	0.08706926
103	0xbdb17ee6	-0.08666782
104	0xbdb44ce5	-0.08803729
105	0x3db37cf1	0.08764065
106	0x3db10d86	0.086451575
107	0x3db37254	0.08762041
108	0xbdb3f3a2	-0.08786704
109	0xbdb17b39	-0.08666081
110	0xbdb1d974	-0.08684054
111	0xbdb1bf96	-0.0867912
112	0xbdb26278	-0.08710188
113	0xbdb1d1d5	-0.086826004
114	0xbdafb818	-0.08580035
115	0x3db1db82	0.08684446
116	0xbdac9e8a	-0.084286764
117	0xbdb227c5	-0.08698992
118	0x3dadff76	0.08495991
119	0xbdaedc23	-0.085380815
120	0x3db2a2a6	0.08722429
121	0x3db174a4	0.086648256
122	0x3daef565	0.08542899
123	0xbdb24950	-0.087053895
124	0x3db486c9	0.08814771
125	0xbdb2581b	-0.08708211
126	0x3db2479e	0.08705066
127	0x3db464f6	0.08808319
