Project 3/models/nonlinear_model_twenty_epochs.pt (torch, 409611 bytes, 25 tensors)

weight f4 [16, 1, 3, 3]
000000 32 4d 7c 3e d8 7e 5b 3e be f6 a6 bc e6 30 9f 3e
       0.24638823 0.21435106 -0.020381328 0.31091994
000010 df 13 6e be 06 a3 9f be 9b 94 a4 3e 01 e1 c2 bd
       -0.23249768 -0.31179065 0.32144627 -0.09515572
000020 9a bd 2f bc 2a f7 d4 3a 31 4f 6d 3e fa ea 16 3e
       -0.010726357 0.0016247977 0.2317474 0.14738074
000030 60 c1 3d bc 25 0e d7 3d 39 7a 34 bd ba bf 6d be
       -0.011581749 0.10500745 -0.044061873 -0.23217669
000040 f1 d1 41 3d 5c 95 13 be 03 0e 0a be 50 99 34 3e
       0.047319356 -0.14412445 -0.13481908 0.17636609
000050 c7 69 97 3d fe 6d 13 3e b8 fa 85 3e 18 22 a0 3e
       0.07393222 0.14397427 0.26167846 0.3127601
000060 14 55 93 3e c5 ee 58 3e f5 3c 57 3e 51 5e 37 be
       0.28775847 0.21184833 0.21019347 -0.17907073
000070 22 bc 65 be 6e 81 94 be c3 31 40 be b3 fb c7 bc
       -0.22435048 -0.29004997 -0.18768983 -0.024412012
000080 ee 52 34 3d c5 01 a8 be b0 0d aa be 8f c0 55 3e
       0.0440244 -0.3281385 -0.33213568 0.20874237
000090 82 a4 24 be c5 ec 99 bd 09 0d 94 3e 27 25 9e be
       -0.1607838 -0.07515863 0.28916195 -0.3088772
0000a0 c6 f8 a8 be 08 71 12 3e 7f 35 4c 3d a8 ca 0e 3e
       -0.330023 0.1430093 0.049855705 0.13944495
0000b0 bb 47 09 3e 86 06 e8 bd 13 f5 8c bd 8f 13 a3 be
       0.13406269 -0.11329369 -0.06882682 -0.3185086
0000c0 a6 5c 45 be 15 3e 98 3c 8e 61 54 3e d0 47 40 3e
       -0.19273624 0.01858429 0.20740339 0.18777394
0000d0 d8 f0 1b be 91 7d 81 be c9 b1 4d be f3 f2 03 3d
       -0.15228593 -0.25291112 -0.20087351 0.032214116
0000e0 7a 15 4c 3e 3d ce aa be d7 f8 54 3e 70 91 96 be
       0.19930068 -0.33360472 0.2079805 -0.29407835
0000f0 49 3f 8a be bc 3b ea bd 8c 49 6f be c6 9f 8d 3e
       -0.27001408 -0.11437175 -0.233679 0.2766096
000100 01 64 24 be 86 0a 1f be f3 16 9b be c1 83 c2 bc
       -0.16053773 -0.15531358 -0.30290946 -0.023744466
000110 27 ec 00 3e 86 40 f4 3d 69 64 b6 be 47 6d 0d bb
       0.12590085 0.11926369 -0.35623482 -0.0021580027
000120 10 8d 8b bd 17 18 c2 bd 55 ea 00 bd 03 35 12 bb
       -0.06814015 -0.09477251 -0.031473476 -0.002230943
000130 91 84 9e 3c 99 b8 8e 3e 52 bd 87 3d 3e 2b e9 bd
       0.019350322 0.27875212 0.06627907 -0.11385201
000140 5b cc 1e be 62 c6 0a 3e 5d 93 29 bd b0 38 97 be
       -0.15507643 0.1355224 -0.041400302 -0.29535437
000150 1e 19 6f 3e ae 1e 1e be d6 6a 53 bd 3e bf 77 bc
       0.23349425 -0.15441391 -0.05161556 -0.015121279
000160 30 2f 77 3e c4 f0 d1 39 c5 cc 83 bc 73 f3 54 3e
       0.24139094 0.0004004297 -0.016088853 0.20795994
000170 3b 23 3d be be f4 63 be 4d 6c 63 3e a8 fb 9e bd
       -0.1847047 -0.2226133 0.22209282 -0.07762843
000180 64 44 a9 3d 50 4d 87 be 6b 75 a4 be e7 ac 1f 3e
       0.082649976 -0.26426172 -0.32120833 0.15593301
000190 86 e6 e1 3d 59 c6 6d 3e 38 37 7b 3e ec b9 0f be
       0.11030297 0.23220195 0.24532783 -0.14035767
0001a0 b9 bf 5e 3c da 63 08 be 06 da 58 3e a4 11 d7 3d
       0.013595515 -0.1331934 0.2117692 0.105014116
0001b0 da 21 de bd 30 bf 91 be 90 72 cf 3d 76 7e 28 bd
       -0.108463004 -0.28466177 0.10129273 -0.041136228
0001c0 da d6 d1 3d 7e 1c a1 3e 7c 61 dd 3d 53 82 e6 bd
       0.10246058 0.3146705 0.10809609 -0.11255326
0001d0 14 36 8f 3d 47 85 62 be bf 89 7c 3e b5 f5 30 3e
       0.069927365 -0.22121154 0.24661921 0.1728123
0001e0 76 ee c6 3d 0e 88 8a 3e dc e1 a3 be ee 87 7f be
       0.097134516 0.27056926 -0.32008255 -0.24954197
0001f0 28 12 b5 bc c3 52 2a 3e 3e cc b0 3e 1b 02 94 3e
       -0.022103384 0.16633134 0.34530824 0.28907856
000200 f9 67 ec bd 3f 23 bc 3d 30 f6 f8 3b fe f4 4e 3e
       -0.11543269 0.0918641 0.007597707 0.20210645
000210 ba 1c da bc 45 db ed 3c 86 b7 9c bc 19 ce 6c 3d
       -0.026625026 0.02903522 -0.01913048 0.057813738
000220 26 04 40 be 8f fc 81 3e 40 d6 94 be a2 b1 bd 3d
       -0.18751583 0.25388 -0.2906971 0.092623964
000230 99 3e 8c be 37 b3 df 3d 84 24 11 3e fa 9d 17 3e
       -0.27391508 0.109228544 0.14174086 0.14806357

bias f4 [16]
000000 fd 8d 1b be 09 41 9c be 7d 1f 8b be 24 a8 97 3e
       -0.15190883 -0.30518368 -0.2717246 0.2962047
000010 0a de a1 bc 3e c1 6a 3d 88 7e 4e 3e ee 3d 9d 3e
       -0.019759197 0.057313196 0.20165455 0.3071131
000020 ab f0 76 3e fe 8b 5b be 68 2e c6 3c e3 2a 48 3e
       0.24115245 -0.21440122 0.02419205 0.1954761
000030 cf c6 d0 bd a3 d1 8b be 18 86 7b be c3 52 6f 3e
       -0.1019417 -0.27308378 -0.24562871 0.23371415

weight f4 [16]
000000 23 ec 7a 3f ac 78 7d 3f 24 32 82 3f 2f 43 7d 3f
       0.98016566 0.99012256 1.0171552 0.9893064
000010 b2 fd 77 3f 9d ac 7c 3f 07 c5 7c 3f a5 e4 7f 3f
       0.96871483 0.98700887 0.9873814 0.9995826
000020 06 c9 7d 3f 29 15 7a 3f b5 94 80 3f d6 e8 7e 3f
       0.9913486 0.9768854 1.0045382 0.9957403
000030 cb 91 79 3f 61 95 7c 3f a5 07 84 3f a6 5d 7a 3f
       0.9748809 0.98665434 1.0314833 0.97799146

bias f4 [16]
000000 d0 32 62 bc 89 ca 64 3c 99 26 9c 3c 39 d9 6b 3b
       -0.01380606 0.013964304 0.019061374 0.003598763
000010 85 15 bf bc 08 43 6e 3c 97 6f 72 3c 97 a4 8a 3c
       -0.023325691 0.014542349 0.014797113 0.016924186
000020 e3 af 45 bc cc 0f 98 bc 1b e9 24 3c 04 8d 1f bb
       -0.01206586 -0.01856222 0.010065342 -0.0024345526
000030 f8 9a bf bb d0 07 71 bc ff 66 2c 3d 69 c7 15 bc
       -0.005847331 -0.014711335 0.042090412 -0.009141781

running_mean f4 [16]
000000 1e 15 ad 42 f5 01 38 41 b0 36 9c 43 a0 a6 65 c3
       86.541245 11.500478 312.42725 -229.65088
000010 35 88 82 c1 4c 48 f5 c2 8f 0a 39 c3 6f af 99 c2
       -16.316507 -122.641205 -185.04124 -76.84264
000020 b2 f6 f2 c0 7b bd 4d 41 45 5d b2 c2 8b 73 22 43
       -7.592614 12.85876 -89.18217 162.45134
000030 cb e6 ea 41 3c 71 f3 41 c0 80 0e 43 fa 5a a7 40
       29.362692 30.43029 142.50293 5.2298555

running_var f4 [16]
000000 57 ea c2 44 01 ba c8 43 b4 42 d1 45 fc c1 79 45
       1559.3231 401.45316 6696.338 3996.124
000010 12 fc 61 44 ee 30 b3 44 45 1a 36 45 d6 7c 79 44
       903.9386 1433.529 2913.6418 997.95056
000020 85 f0 74 43 6d cc 0c 44 d8 9c 8e 44 40 4c f9 44
       244.93953 563.19415 1140.9014 1994.3828
000030 1d a7 0d 44 9a d9 4a 44 8d 64 d9 44 7b 93 12 44
       566.61115 811.4 1739.1422 586.3044

weight f4 [32, 16, 3, 3]
000000 a3 b0 f5 3c 75 79 49 bc 64 1c 2e bd 26 86 74 3d
       0.029991454 -0.012297024 -0.042507544 0.059698246
000010 44 e0 b9 3d 13 81 90 bd 16 9d 6d bd 85 f4 7d 3d
       0.090759784 -0.07055869 -0.058011137 0.06200077
000020 13 1e 6d 3d f3 d5 74 bc 5d 1a 83 3d 93 70 e2 bc
       0.05789001 -0.014943588 0.06401513 -0.02764157
000030 06 3b 81 bd 89 bf 5b bd 5a 14 c1 3b ab 85 b5 3d
       -0.06310086 -0.05364946 0.0058923187 0.08863386
000040 b6 6b 41 bd a3 67 29 bd 99 8c 21 bd c5 21 4c 3d
       -0.04722186 -0.0413586 -0.039440725 0.049836893
000050 61 9b b4 bd bc 39 39 bd 64 94 88 bd 39 69 d9 bc
       -0.08818699 -0.045221075 -0.06668928 -0.026539432
000060 28 53 44 3c 36 2b 71 bc 46 fc 2d bd 82 96 f8 bc
       0.011982717 -0.014719775 -0.042476915 -0.030345205
000070 bf 17 35 bb 2c ac ae bd 4b c5 bd bc fd 27 8f 3c
       -0.0027632562 -0.08528933 -0.023165366 0.017475123
000080 9f 56 33 bc c8 ec 43 3d 98 c9 e9 bc 35 63 74 3d
       -0.010945945 0.047833234 -0.02853851 0.059664924
000090 48 c1 be 3a 28 74 77 3d 97 45 83 3d f6 6c 96 bc
       0.0014553452 0.06041351 0.064097576 -0.018362503
0000a0 74 ff 5c 3d b6 5b 1c bd b5 4a 36 3c ce 1e 18 3c
       0.053954557 -0.0381734 0.01112621 0.009284688
0000b0 f1 df 44 bd bf c8 e0 3b 4b 00 b1 3d 43 72 8f 3d
       -0.04806513 0.0068598683 0.08642634 0.070042156
0000c0 8d cc e9 3b 8a fb 87 3d fb 30 89 3c d0 2d 76 3d
       0.00713498 0.06639774 0.016746989 0.060102284
0000d0 c1 f1 9d bd 55 03 ac bd 46 15 61 3d 78 a8 5f bd
       -0.077121265 -0.08399073 0.05495193 -0.054604024
0000e0 eb 9d b5 bd f9 88 39 3d 1a 1e 0b bd 1e f7 b1 bd
       -0.08868011 0.045296643 -0.033964254 -0.08689712
0000f0 64 84 ad 3b 75 bc ab 3c 72 a0 e1 3a ee f9 75 bd
       0.005295323 0.020963887 0.0017213954 -0.060052805
000100 c8 a3 90 bd fc fb 9d bd 2e 86 21 bd 09 01 7d 3d
       -0.07062489 -0.07714078 -0.039434604 0.061768565
000110 b4 68 ae 3c dd 9a 06 3d b1 cd e9 bc 41 1e 45 bd
       0.02129016 0.032862533 -0.028540464 -0.048124555
000120 39 b7 9f bd a0 ac 17 bd b7 68 be bc 2c 16 da 3b
       -0.07798619 -0.037029862 -0.023243291 0.006655475
000130 38 79 35 bc 27 88 9f bd 00 93 b7 3c 67 28 ad bc
       -0.011076264 -0.07789641 0.022408962 -0.02113743
000140 29 9d ee 3c d3 73 0a 3d ef cd fb bb ed 07 6c 3c
       0.029127674 0.033801865 -0.0076844613 0.0144061865
000150 43 39 f7 bc bf 1a 93 3c ef df 3c bb 8b 75 88 3d
       -0.030178672 0.01795709 -0.0028819998 0.066630445
000160 a9 a1 4c 3d 46 50 2b 3d 3e 86 f5 3c 95 46 95 3d
       0.04995886 0.0418246 0.029971238 0.07288853
000170 4b 4f a1 bd 61 e5 b2 3d c9 fe 65 3d 70 15 28 bd
       -0.07876452 0.08735157 0.056151185 -0.04103607
000180 aa 2f bd 3d c0 2d 29 3e 9d 2f 27 bd 77 96 99 3a
       0.09237607 0.16521358 -0.040816892 0.0011717816
000190 a4 f8 95 bd cd f7 3c 3d 02 52 95 bd a7 72 46 bd
       -0.07322815 0.04613476 -0.072910324 -0.048449185
0001a0 b5 76 31 3d 08 68 93 3a e0 ee 60 bd 1f 63 63 bd
       0.0433261 0.0011246214 -0.05491531 -0.05551445
0001b0 35 8e 4e 3c 8f 41 03 3b c0 34 2c bd 90 66 a7 3d
       0.012607147 0.002002809 -0.042042494 0.08173859
0001c0 0b e8 63 bd a0 fd 2c bd 73 7c 2d bd 6c dd 77 3d
       -0.055641215 -0.042234063 -0.042355012 0.0605139
0001d0 81 de f8 3c dd b5 17 bc 44 39 51 3d a4 10 2e bb
       0.030379536 -0.009259668 0.051080003 -0.0026560212
0001e0 e2 39 56 bd ad 87 9c 3b 8d 72 5b bd d7 09 40 3d
       -0.052301295 0.004776916 -0.05357604 0.046884384
0001f0 4f c4 41 bd 03 6f 22 3d d3 67 89 bd 8e a0 56 bd
       -0.047306355 0.03965665 -0.06709256 -0.05239921
000200 69 cb 45 bd 0d 27 6a bd b4 2d 88 bd f4 fe f7 3c
       -0.04828969 -0.057166148 -0.06649342 0.030272938
000210 52 e0 86 3d 9d c4 a0 bd aa 4e 11 3d 13 d2 9e 3d
       0.065857545 -0.07850001 0.03547541 0.07754912
000220 4c 5a 46 3d 86 1e a2 3d 64 2d 70 3d c2 2e 0c 3d
       0.048425958 0.07915978 0.058637038 0.03422428
000230 4b b7 24 bc fd 04 19 bc 5e 57 99 3d 79 45 b4 bb
       -0.010053466 -0.009339568 0.07487367 -0.005501446
000240 f4 db 3b bd 53 43 95 3d 4c bc 07 bd 4d b6 00 3d
       -0.04586406 0.07288232 -0.03313856 0.031423856
000250 40 21 2e bd 48 c9 7e 3d fd f4 13 3c d5 e8 82 bd
       -0.04251218 0.062203676 0.009030578 -0.063920654
000260 7b c1 87 3d dd 29 81 bd 6f ed 70 3d 30 b5 53 3d
       0.066287 -0.06306813 0.058820184 0.051686466
000270 12 99 11 3d 54 7a dd 3c 24 00 13 3c 3e 4b 1c 3d
       0.03554637 0.02703587 0.0089722015 0.038157694
000280 66 21 a0 3d 28 66 46 3d 90 81 f7 bb 9a a6 8d bc
       0.0781887 0.048437268 -0.007553287 -0.017291356
000290 08 5a 10 bd e1 65 d7 bc de e2 a7 bd 51 14 92 bd
       -0.03524211 -0.026293697 -0.08197568 -0.07132781
0002a0 c5 a4 91 bd 4c 67 c0 bc 82 f0 2d 3d 58 38 01 bd
       -0.071115054 -0.023486756 0.042465694 -0.031547874
0002b0 67 25 42 3d b6 db 6a 3d fd 4d a0 bd e8 86 9f bc
       0.04739895 0.05733844 -0.07827375 -0.019473508
0002c0 1a dc ac bd 45 ad 75 3c 8c 34 40 3d 27 e4 a0 3d
       -0.084404185 0.014994924 0.046925113 0.078560166
0002d0 a2 c9 02 bd 2d 90 bd 3b df ee 67 bd eb a6 a0 3c
       -0.031930573 0.0057850094 -0.05662429 0.019610843
0002e0 2b 62 6e 3d 8d 82 06 3c 93 ad a4 3c 23 b2 8f 3d
       0.05819909 0.008209837 0.020102298 0.07016399
0002f0 05 a9 a1 bd 69 ac 5e bb 6c 40 1c bd b0 71 16 bc
       -0.07893566 -0.0033977276 -0.038147375 -0.009182379
000300 81 77 df 3c b3 00 15 3d f0 92 75 bd 45 4e af bd
       0.027278664 0.03637762 -0.059954584 -0.085598506
000310 d8 7c ac bd d1 73 22 bd f3 6b 85 bd 2c d0 65 bd
       -0.084222496 -0.039661232 -0.0651473 -0.05610673
000320 8e 4a 84 bd ee 5d 35 bb a8 8b 9a bd 5f 9d 36 3d
       -0.06459533 -0.0027674395 -0.075461686 0.044583675
000330 6d f3 95 bc 08 ba 74 3d 69 34 0b 3d 69 6d 38 bd
       -0.018304551 0.059747726 0.03398553 -0.045026217
000340 f2 e3 24 3c 9c 87 a0 bd 26 43 b7 bd cd 57 37 3c
       0.010064112 -0.078383654 -0.089483544 0.011190367
000350 67 41 c6 bc 38 fe e4 bd ab 08 1f bd 0e e5 26 bd
       -0.024201108 -0.11181301 -0.038826626 -0.040745787
000360 4e ad 50 3d bc af 32 bc b6 dc 82 bc 24 0c a2 bd
       0.050946526 -0.010906156 -0.015974384 -0.07912472
000370 8f 02 91 bc c5 4b 9a bd 9c e6 3e 3d ed b7 e1 bc
       -0.017701415 -0.07533983 0.046606645 -0.027553523
000380 15 ef 68 bd 53 76 78 bc 42 50 be 3d a3 64 97 bc
       -0.05686863 -0.015164929 0.09292652 -0.018480605
000390 f0 4d 97 bd 42 d1 00 3c eb 64 05 bd ed 5d 9e 39
       -0.07387912 0.007862391 -0.032566946 0.0003020609
0003a0 bd 2c 03 3d f9 04 00 3d 95 ab 2c 3b 5a 7c 0a 3d
       0.032025088 0.031254742 0.0026347388 0.033809997
0003b0 b1 18 dd bd ef 96 88 bc 0b 7f 1b bd 5e cd a1 bd
       -0.10795725 -0.016673533 -0.037962954 -0.07900499
0003c0 a9 3a 37 bc 03 9f cc 3d 7b da cc 3d eb 43 a0 bd
       -0.011183419 0.099912666 0.10002609 -0.07825454
0003d0 bf 46 f4 3c 2e 16 75 bd 51 6c dc 3b 96 3a a0 3d
       0.02981889 -0.059835605 0.0067267795 0.078236744
0003e0 55 92 3e bc d1 fe a4 bd 22 5d 2d 3d 64 19 43 bd
       -0.011631568 -0.08056415 0.042325146 -0.047631636
0003f0 06 5b 9a 3d 35 51 b1 3d f5 8b 0a bd 79 49 29 3d
       0.075368926 0.08658067 -0.03382488 0.041329835

bias f4 [32]
000000 94 c6 af bd f5 0f 89 3d 8e 26 9f bd 59 6f f5 bc
       -0.08582798 0.06692497 -0.077710256 -0.029960321
000010 ea e3 a1 bd 2e 21 cc bc c9 88 8e bd db af 84 3d
       -0.07904799 -0.024918165 -0.069596834 0.06478854
000020 8f 94 2d 3d fb de a6 bd e0 8a 82 3d 16 5d 32 bd
       0.042378005 -0.08147999 0.063741446 -0.043545805
000030 31 58 54 3d ff 1c ab 3d b6 8b 1b bd ba 67 25 3d
       0.05184192 0.0835514 -0.037975036 0.040382124
000040 ef 53 60 bd 4f b6 82 bc 0d 97 93 3d 3a 9c 4a bd
       -0.054767545 -0.015956072 0.07206545 -0.049465396
000050 7e 7c e9 3c 88 29 fe 3a cd 74 ee 3c c6 77 72 3d
       0.028501745 0.0019391039 0.02910843 0.059196256
000060 59 34 b5 bd 8b 9e a7 3d d5 6b 8c bd a6 51 94 bd
       -0.08847875 0.081845365 -0.06856505 -0.07242136
000070 07 70 4d 3c 1e f5 55 bb b7 9b 4f bd b9 6e 3f 3b
       0.012538916 -0.0032647322 -0.05068561 0.0029210283

weight f4 [32]
000000 76 52 80 3f 01 0c 80 3f 41 2e 80 3f d3 a6 80 3f
       1.0025165 1.0003663 1.0014116 1.0050911
000010 0d f6 75 3f a1 e4 82 3f 60 a0 7a 3f 2d f1 7d 3f
       0.9607857 1.0226022 0.9790096 0.9919613
000020 eb 7e 86 3f a0 88 7c 3f cb fc 74 3f 8b 86 80 3f
       1.0507482 0.98645973 0.9569823 1.0041059
000030 cc 30 7f 3f 79 45 78 3f dc be 79 3f 61 0e 81 3f
       0.99683833 0.96981007 0.97556853 1.0082513
000040 c1 3a 7a 3f 3b 63 80 3f 15 bd 75 3f b2 ef 7d 3f
       0.977459 1.0030283 0.9599164 0.9919387
000050 3b 08 81 3f 86 37 7f 3f 0a 4d 7a 3f 46 11 79 3f
       1.0080637 0.996941 0.977738 0.9729198
000060 22 cd 78 3f d8 5c 7f 3f a5 b8 79 3f e5 2d 84 3f
       0.9718801 0.99751043 0.9754737 1.0326506
000070 a0 06 7c 3f ce 9a 7c 3f 86 5a 76 3f 4f e7 80 3f
       0.9844761 0.98673713 0.9623188 1.007059

bias f4 [32]
000000 dd 93 c3 bc 23 21 0a bc 37 a4 5d 3c 99 23 02 bd
       -0.023874218 -0.008430752 0.013527921 -0.03177223
000010 5e 46 dc bc 84 ac 82 3c ff 1e 3f bc 8d cd bf 3a
       -0.026889022 0.015951402 -0.011665105 0.0014633402
000020 b5 eb 25 bc 20 55 ec bc e7 d7 95 bc d4 c1 5f 3b
       -0.010126998 -0.028849185 -0.018291427 0.003414263
000030 81 a6 e5 3c 63 9b b0 bc 5e 83 12 bd 5c b4 10 39
       0.028033497 -0.02155847 -0.035769813 0.00013800099
000040 ff 2e 78 bb 5b 29 45 3b 48 3a 0a bc f1 17 a1 bc
       -0.0037869809 0.0030084464 -0.008436747 -0.019664736
000050 12 43 7c b9 a8 45 42 bc 92 d9 20 ba 39 26 89 bb
       -0.00024057578 -0.011857428 -0.0006135936 -0.0041854647
000060 73 8d 83 bc 1b 84 2a 3c 65 2e 15 bb f7 b8 ac 3c
       -0.01605866 0.010407473 -0.002276325 0.021084292
000070 d5 c1 30 3c f6 3c a4 3b 47 fc 12 bd 60 c5 23 3c
       0.010788401 0.00501215 -0.03588512 0.009995788

running_mean f4 [32]
000000 a7 e6 06 bf fd de 1d be 62 ab 4c bf 33 1b a2 be
       -0.526957 -0.15417095 -0.7994901 -0.31661376
000010 97 aa 87 be db ec 08 bf 81 e2 b3 bd cd 99 96 3c
       -0.26497337 -0.5348641 -0.087834366 0.018383885
000020 5a 3d 1a 3f 9a fa 2d be 4e 23 4a be 56 f7 2f bf
       0.60249865 -0.16990128 -0.1974003 -0.6873678
000030 50 38 75 be 94 8f 7c 3d 0e 16 e5 bc 16 11 a2 bd
       -0.23947263 0.061660364 -0.027964618 -0.07913415
000040 bd 8f 89 be 9d 2e 5a bc 20 af c6 bc 42 7d 49 be
       -0.26867476 -0.013316778 -0.024253428 -0.19676688
000050 e4 c8 38 bd 0c bb cf 3e fe 61 b9 3e dc 46 a1 bd
       -0.04511346 0.40572393 0.36207575 -0.078748435
000060 52 94 29 bf b7 35 cb 3c ca d4 e8 be 38 42 3d be
       -0.66241944 0.024805887 -0.45474845 -0.18482292
000070 d2 8b c3 bd 78 a3 1f 3e 21 4d 4b bf 1c 62 db be
       -0.09548153 0.15589702 -0.79414564 -0.4284829

running_var f4 [32]
000000 fd d6 62 3e 1b 59 99 3e 04 66 f3 3e ec 9e 31 3e
       0.22152324 0.29950795 0.4753877 0.1734578
000010 ac 50 0f 3f 6a 0c 9a 3f 30 e4 25 3f 51 62 46 3e
       0.5598247 1.2035038 0.6480131 0.19373442
000020 bb 28 0f 3f f6 df cc 3d 35 c0 a1 3e 6d 79 0f 3f
       0.55921525 0.10003655 0.31591955 0.56044656
000030 f7 85 9c 3e 65 ab 01 3e bd 21 c3 3d 1c fc 5e 3e
       0.30570957 0.12663038 0.095279194 0.2177586
000040 77 84 01 3f 88 be 9e 3e bc a0 21 3e aa fb 05 3e
       0.5059275 0.3100474 0.15783972 0.13084283
000050 e4 08 1e 3e 9b 35 e3 3e 04 40 0d 3f 5e aa 07 3f
       0.15433079 0.44376835 0.55175805 0.52994335
000060 8c ca 97 3e 90 e9 82 3e 03 18 5b 3e 0e 1a 2f 3f
       0.29646719 0.2556882 0.21395878 0.6839913
000070 ac 48 af 3e 25 61 b8 3e b5 d4 24 3e 79 db 82 3f
       0.34235132 0.36011615 0.16096766 1.0223228

weight f4 [64, 32, 3, 3]
000000 61 39 69 bd 1b 16 a4 bd 06 fd 44 bc c7 8f 96 bd
       -0.056939486 -0.08012029 -0.012023216 -0.07351642
000010 45 60 85 bc c1 0e 8c bd 0a 30 5c bd 83 b9 2a bd
       -0.016281256 -0.068387516 -0.05375675 -0.041680824
000020 be db a8 3c e5 39 00 bd e7 04 e2 bc 2a 2d 2a bd
       0.020612594 -0.031305213 -0.027590228 -0.041546978
000030 45 89 91 bd e2 86 93 bc dd f4 9f bd 8d 90 88 bd
       -0.0710626 -0.018008653 -0.07810376 -0.06668196
000040 01 0d 75 bd 86 80 90 bd 73 03 be 3c b2 da eb bc
       -0.059826855 -0.07055764 0.023195004 -0.028790805
000050 fb b4 3d bd a5 68 c5 bc 6b e7 9b 3c 77 b1 c4 bc
       -0.046315175 -0.02409775 0.019031247 -0.024010403
000060 8e 48 47 3d 9c 4c 3b bc 68 92 32 3d 0c 1a 59 bd
       0.048653178 -0.011431839 0.043596655 -0.053003356
000070 8c 8c 63 3c fd da f5 bc 68 f7 17 bc c3 57 9f 3b
       0.013888489 -0.030011648 -0.009275295 0.004862757
000080 1d fa ef bc de a7 db 39 36 1b 1c bd 0f 89 32 bd
       -0.029294068 0.00041896006 -0.038111888 -0.04358774
000090 72 d7 2f 3d 3f b2 0f 3d b6 11 74 bc 7e 32 4e 3c
       0.042930074 0.035082098 -0.014896801 0.01258528
0000a0 4e b5 0a 3c 10 4d 20 bc 42 9c 01 bd 63 80 c5 bc
       0.008466078 -0.009783998 -0.03164316 -0.024109071
0000b0 bc e3 37 3b 29 bf e0 3c 63 d7 05 3d 31 88 57 3c
       0.0028059324 0.027434902 0.032676112 0.013155029
0000c0 32 b3 06 3d 49 93 b7 3c bb 0c 14 3d 85 16 d0 bc
       0.032885738 0.022409098 0.036144953 -0.025401363
0000d0 ba 4a 3f 3c 5c 1c 37 39 81 d5 28 3d f3 a1 7b 3c
       0.011675531 0.00017462805 0.04121924 0.015358436
0000e0 ba 9d c1 3c 62 c4 d2 bc 30 8b a8 bc b7 37 b1 ba
       0.02363478 -0.025728408 -0.020574182 -0.0013520633
0000f0 3c b1 2b 3d 8d 5b 0b 3d fd 6a fc bc fc e4 bd bd
       0.04191707 0.034022857 -0.030812735 -0.09272191
000100 fb 1d a4 bd 99 6d 5a bd 0f 67 03 3c 30 88 65 bd
       -0.08013531 -0.053327177 0.008020177 -0.05603808
000110 f2 d8 be bd 79 b5 45 bd 36 14 2f bd 66 f9 8a bd
       -0.09318723 -0.04826877 -0.042743884 -0.0678585
000120 d9 61 7d 3c e3 70 7d 3d 16 ce fb bc 34 ac 37 3d
       0.015465223 0.061875235 -0.030737918 0.04484196
000130 89 f7 d5 bb b0 ad 7e 3d a6 6b f5 bb e7 c2 99 3c
       -0.0065297526 0.06217736 -0.0074896393 0.018769694
000140 b9 2b 80 bc 1d 49 bc bd f6 f5 8a bd 2e 62 33 bd
       -0.015645849 -0.09193633 -0.067851946 -0.043794803
000150 ba 02 a5 bd 5d 10 52 bd 26 a2 da bc 2c 4e 9b bd
       -0.08057161 -0.051285136 -0.026688647 -0.075832695
000160 8d 3e d5 bd 0c a1 f5 bc 08 32 14 3b 60 ca a1 bd
       -0.10412321 -0.02998402 0.0022612829 -0.07899928
000170 ad b7 be bc 4d 03 cf 3c ac a8 1d bd 7d ee 13 bd
       -0.023280943 0.025270129 -0.038490936 -0.036116112
000180 02 e1 98 bd 93 45 0a bd d4 75 ea 3b be e5 98 3c
       -0.07464792 -0.033757757 0.0071551595 0.018664237
000190 74 68 28 3c 3d 7c 0f bd a9 9b 53 3d eb c7 42 3d
       0.01027881 -0.035030592 0.05166212 0.047553938
0001a0 bc 7f 38 bd 68 b4 2d 3d fc e5 05 bd 90 5d 62 bd
       -0.045043692 0.042408377 -0.032690033 -0.05526501
0001b0 41 08 26 bd 15 50 32 3d e5 55 3d bd 98 9b 84 3c
       -0.040535215 0.043533403 -0.046224494 0.016187474
0001c0 c1 27 d6 3c fa 98 23 3c 6f 31 3e 3d 31 00 0d bc
       0.026142003 0.009985203 0.046433862 -0.008606003
0001d0 c2 3d 2c bc 92 49 8a bd 72 7f 9a bc 66 34 a2 bd
       -0.010512771 -0.06752314 -0.018859599 -0.079201505
0001e0 e1 55 7a bc 9d 9f 88 bd 47 c9 2b bd 2c 43 99 bd
       -0.015279264 -0.06671069 -0.04194 -0.07483515
0001f0 69 00 66 bd 22 25 15 bc a6 b1 53 bb fb a8 ac bb
       -0.056152735 -0.009103091 -0.0032301932 -0.0052691675
000200 4c 2b b1 bd e6 99 83 bd 9d 4a b0 bd 0b 3c a5 bc
       -0.08650836 -0.06425838 -0.08607981 -0.020170232
000210 c0 df 98 bd 7f fb 03 bd 4e 20 99 bd 4c 36 07 bd
       -0.07464552 -0.032222267 -0.07476865 -0.033010766
000220 7e 07 de bd 6b f3 c1 bd 78 7e ed bc a1 47 3f bc
       -0.10841273 -0.094702564 -0.028990969 -0.0116747925
000230 3c 41 46 bd d5 64 a7 bd ce 4e 9c bd 16 8c 05 bd
       -0.048402056 -0.08173529 -0.07632218 -0.0326043
000240 29 f3 75 bd 08 66 c0 3c 4d 4b 61 bd ed 78 76 bd
       -0.06004635 0.023486152 -0.055003453 -0.060173918
000250 a0 fd 39 3d ab be 89 bd 66 7c c8 bc e7 a3 21 3d
       0.04540789 -0.0672582 -0.02447338 0.03946295
000260 f7 a9 45 bd f8 47 c5 bc 34 9f 4f 3d ae a4 23 bd
       -0.048257794 -0.024082169 0.050688937 -0.039951973
000270 07 a1 b1 bc 33 76 12 3d e9 71 e7 bb aa 93 70 bd
       -0.02168323 0.035757255 -0.0070631397 -0.058734573
000280 16 fe 39 3b c4 b1 66 3c fe 70 b5 bd 5e bd 8a bc
       0.0028380207 0.014080469 -0.08859442 -0.016936
000290 65 97 b5 bb 6b 00 98 bd 6f be 15 bd 0a 7d 91 bc
       -0.0055417293 -0.07421955 -0.036558565 -0.017759819
0002a0 ec c6 c1 bc eb 84 b3 bd 8b ec 6e bc ba c0 98 bc
       -0.023654424 -0.087655865 -0.014582763 -0.018646587
0002b0 c3 5e 8d bd 32 3b 90 bd ba 62 a3 bd 19 a3 83 bd
       -0.0690284 -0.070425406 -0.07977815 -0.06427593
0002c0 cc c7 06 bd b7 04 a4 bd 4c 56 9d bc bc b8 69 bd
       -0.032905385 -0.08008712 -0.019206189 -0.057060942
0002d0 83 93 2e bb a3 90 e0 3b 0d 46 9c bd b4 24 b4 bc
       -0.0026638217 0.0068531795 -0.076305486 -0.021990158
0002e0 f3 f6 f0 bc ea 4a 2c bd d1 7a 7b bd 31 4f c4 bc
       -0.02941463 -0.04206363 -0.061396424 -0.023963543
0002f0 11 e6 40 bd a5 c6 bb 3c 44 64 4a 3d 65 86 07 bd
       -0.04709441 0.02292187 0.049412027 -0.033087153
000300 50 65 2d 3c b1 2d 42 bd 22 3f ed bb 8b ab 11 3d
       0.010583237 -0.047406856 -0.007240192 0.035563987
000310 a9 ea 1d bc 24 34 98 bb ef e2 a4 bc a8 04 3c 3b
       -0.009638467 -0.0046448875 -0.020127742 0.0028689299
000320 72 56 47 bd b2 76 c5 bc 8c 3d 74 bd c9 27 0e 3d
       -0.048666425 -0.02410445 -0.05962901 0.03470591
000330 a4 62 cf 3c 11 8e 8c bc 93 fa 26 3d 76 eb f1 bc
       0.02531559 -0.017157586 0.04076631 -0.029531222
000340 48 5d 91 bc 98 95 35 3c 78 63 d6 3c 27 9c 45 bd
       -0.017744675 0.011083029 0.026170477 -0.04824462
000350 7d 44 cf ba 63 40 5f 3c fe 17 1a bd d6 43 6e bd
       -0.0015813258 0.013626191 -0.037620537 -0.058170162
000360 c1 c5 5c bd b0 60 05 bb 83 76 6d bd 85 ef 34 3d
       -0.05389953 -0.002035182 -0.05797435 0.044173736
000370 7a 00 30 bd 14 65 66 bc 1b b8 46 bd 98 59 8f bc
       -0.042969204 -0.014062185 -0.04851542 -0.017498776
000380 ee de 56 bd 9a d0 f4 3c ae 45 28 bd ea 34 13 bd
       -0.052458696 0.029884625 -0.041082077 -0.035939135
000390 09 67 b2 bd 8e af 23 bd 5e 8f 19 bd ce 5d 65 bd
       -0.08711059 -0.039962344 -0.03749024 -0.055997662
0003a0 ea ae 26 bd 80 be af bd 06 9b fb bc 65 d7 36 bd
       -0.040694155 -0.08581257 -0.03071357 -0.04463901
0003b0 0c 93 d0 3c 2d 3f 4d bd 4d 73 4b bb ee ca 1f bc
       0.025460742 -0.050109077 -0.0031044066 -0.009752972
0003c0 31 14 84 3c a5 d1 02 3d cf 8e 61 bd 3c 0a 85 3c
       0.01612291 0.031938214 -0.055067834 0.016240232
0003d0 86 73 9d 3c d4 15 fc bb 99 9d 64 bd ba d9 c2 bc
       0.019220125 -0.007693032 -0.05581436 -0.02378546
0003e0 50 98 47 bc a7 de f4 bc dd 46 fc bc 08 01 83 bd
       -0.01218231 -0.029891325 -0.030795509 -0.06396681
0003f0 9d 2c 22 ba ce d6 c6 bc fc 8a a1 3c 2a 9e b2 ba
       -0.00061864575 -0.024272349 0.019719593 -0.0013627459

bias f4 [64]
000000 33 10 29 bd 14 76 77 3d fa 87 11 bb c9 04 19 3d
       -0.041275214 0.060415342 -0.0022206292 0.03735808
000010 db 34 d9 3c f4 91 e7 3c 0f 32 82 bc 5d c9 da bc
       0.026514461 0.028267838 -0.01589301 -0.026707346
000020 bd d4 d2 ba ab 94 80 bc a5 1b 38 bd 73 dd cc 3b
       -0.001608513 -0.01569589 -0.04494824 0.0062519847
000030 0b 93 b6 bc fc 58 cc 3c 88 8c 8c 3c dc 24 8e bd
       -0.022286912 0.024944775 0.017156854 -0.06940624
000040 25 c7 b8 bc f3 19 3c 3b a7 0a 43 bc 19 6d 15 3d
       -0.022555897 0.002870199 -0.011904395 0.036480997
000050 58 ea d3 bc 85 4e 3f bd 3f 65 28 bc d7 f0 2d bd
       -0.02586858 -0.04670574 -0.010278045 -0.04246601
000060 04 f9 0e bd ba ea 2d 3d d5 1e 4b bc 43 b1 d9 bc
       -0.03490545 0.04246018 -0.012397488 -0.026573783
000070 53 05 b3 3c 6f a4 23 bd e4 0b 44 bd ef d0 8c bb
       0.021853125 -0.039951738 -0.047862902 -0.0042973678
000080 53 29 a4 3a e2 3d a3 bb f0 f6 1e 3c f9 0e c8 3b
       0.0012524523 -0.0049817422 0.009702429 0.0061053005
000090 01 02 48 bb d4 91 bc 3c 7d 7b 86 bd e2 32 0c bc
       -0.0030518773 0.023018755 -0.06566522 -0.008557053
0000a0 f6 b6 39 bd 17 4f 1d bd 7c 4a 93 bc 17 a9 81 3d
       -0.0453405 -0.038405504 -0.017979853 0.063310795
0000b0 eb f5 8a 3d 54 31 9f bc 0b 36 e4 3c 20 a5 22 bd
       0.067851864 -0.019432701 0.027857801 -0.039708257
0000c0 27 1b c6 3c 73 3b d6 bb d4 bd 93 bd 9f e6 99 3c
       0.02418287 -0.0065378486 -0.07213941 0.018786727
0000d0 5a 73 e5 bb 3e 1f 2d 3d 82 41 a7 3c 92 61 4c bc
       -0.0070022764 0.042266123 0.020416979 -0.012474434
0000e0 e6 83 2e 3c 4a 24 c1 3c 9d 45 3e ba 57 b1 05 bd
       0.010651564 0.023576874 -0.0007258298 -0.032639828
0000f0 df 54 32 bc ff 18 5b 3c b9 d9 17 3d bc 14 7f 3d
       -0.010884493 0.013372659 0.03707287 0.062275633

weight f4 [64]
000000 4b f2 7a 3f ca ff 7f 3f 33 d5 81 3f 02 52 82 3f
       0.9802596 0.9999968 1.0143188 1.0181277
000010 2f 27 82 3f 78 5a 84 3f c0 b0 80 3f 19 1a 80 3f
       1.0168208 1.0340109 1.005394 1.0007964
000020 cd cc 77 3f 33 01 82 3f 5d 9d 80 3f ad 32 82 3f
       0.96796876 1.0156616 1.0048023 1.0171715
000030 8b 90 81 3f e2 51 88 3f fc ad 83 3f 3a f5 7c 3f
       1.0122236 1.0649989 1.0287471 0.98811686
000040 2f a5 82 3f 13 7a 7e 3f a4 aa 7a 3f 0a d1 80 3f
       1.020666 0.9940502 0.97916627 1.0063794
000050 c1 45 80 3f dd 5f 7a 3f d5 ff 80 3f fe 40 77 3f
       1.0021287 0.97802526 1.0078074 0.96583545
000060 8c d0 7b 3f 31 64 7e 3f 1e bc 82 3f 57 dd 80 3f
       0.9836509 0.9937163 1.0213659 1.0067548
000070 18 60 7d 3f f4 80 7e 3f 45 83 7c 3f c3 e0 82 3f
       0.9897475 0.99415517 0.986378 1.0224842
000080 ad b0 81 3f ae 41 84 3f f1 ae 83 3f ea ee 7b 3f
       1.0132042 1.0332544 1.0287763 0.9841143
000090 dc 2c 80 3f c0 3f 85 3f 0e bb 7a 3f ca 13 7c 3f
       1.001369 1.041008 0.9794167 0.98467696
0000a0 d7 68 7b 3f 4d b5 82 3f 62 81 80 3f e9 b5 77 3f
       0.9820685 1.0211579 1.0039485 0.9676195
0000b0 37 38 83 3f 9a 8d 83 3f 96 f6 77 3f 76 cc 7f 3f
       1.025153 1.0277588 0.96860635 0.9992136
0000c0 0b b9 7c 3f a6 f8 7d 3f 7d d2 79 3f 99 49 80 3f
       0.98719853 0.9920753 0.97586805 1.002246
0000d0 4d 74 83 3f 88 b9 82 3f cc 81 81 3f 28 df 7b 3f
       1.0269867 1.021287 1.0117736 0.98387384
0000e0 e5 61 81 3f d7 7d 81 3f dd 41 80 3f bb a5 7b 3f
       1.0108 1.0116528 1.00201 0.9829976
0000f0 90 3f 86 3f 75 ea 81 3f 62 89 83 3f 6a 5d 80 3f
       1.0488148 1.0149676 1.0276301 1.0028508

bias f4 [64]
000000 58 8f 3d 3c b2 fa ae 3c e6 64 80 bb d8 8d af 3c
       0.01156982 0.021359775 -0.003918278 0.021429941
000010 c2 44 2e 3d 09 bd 1c 3d 7f 0c 99 3c ea 45 a5 3c
       0.04254604 0.038266215 0.018682716 0.02017494
000020 a1 fb 42 bd 69 c8 00 3d 0a f5 dd 3c af 16 32 3d
       -0.047603253 0.031441126 0.027094383 0.043478664
000030 32 2c 13 3d 06 d9 cf 3c 38 5a a1 3c 19 44 71 bc
       0.03593082 0.02537204 0.01969634 -0.014725708
000040 fa 69 cb 3c 68 54 75 3c cc 76 df bb d6 3a 84 3c
       0.024830807 0.014973737 -0.0068195816 0.016141336
000050 d5 93 94 3c ec e7 ee bc 79 a7 c2 3c 3f 38 20 bd
       0.018136898 -0.029163323 0.023761498 -0.03911614
000060 41 21 7c bb 89 ce d2 3a 45 85 1c 3d 34 11 0e 3d
       -0.003847197 0.0016083281 0.038213033 0.034684375
000070 3f 49 67 3c 07 57 b9 3c 79 90 69 ba 9f 28 26 3d
       0.014116584 0.022624506 -0.0008909773 0.040566083
000080 f3 2a ca 3c 55 28 ec 3c 5c 13 b3 3c 9c 4a 2d 3c
       0.024678683 0.028827826 0.021859817 0.01057687
000090 9a 0b c0 3b 1d 8c 3d 3d d7 e4 37 bc 94 84 ca bc
       0.005860758 0.0462762 -0.011223993 -0.024721421
0000a0 46 4d 35 bc f9 97 0b 3d 8f 91 5c 3d 4c c9 d7 3b
       -0.011065787 0.03408048 0.053849753 0.0065852758
0000b0 39 a1 bd 3c 2e cd aa 3c a1 d1 65 bd 40 b0 88 3b
       0.023148166 0.02084979 -0.05610812 0.0041714013
0000c0 e0 7e 80 3c 81 ea 46 3c 59 20 37 bb 36 7c b8 3c
       0.015685499 0.012140871 -0.0027942865 0.022520166
0000d0 4f d6 2b 3d 2c 3a 21 3d f9 cb fd 3c 2e 44 12 3b
       0.041952427 0.039362118 0.03098105 0.002231847
0000e0 6e 6d a1 3c 55 ce f6 3c bb 0f 81 bc be 96 18 bd
       0.0197055 0.030127684 -0.015754571 -0.037253134
0000f0 71 d9 ac 3c a9 5b 1b 3d 06 f6 2a 3d 39 c4 90 3c
       0.021099778 0.03792921 0.041738532 0.017671691

running_mean f4 [64]
000000 86 ca 67 bf 7c 82 02 bf 56 40 80 be e3 19 26 bf
       -0.905434 -0.50980353 -0.25049084 -0.6488325
000010 73 35 aa be ac d4 68 bf f4 f0 8f bc 17 8f 88 be
       -0.33243904 -0.9094951 -0.01757095 -0.2667167
000020 92 89 e2 be 59 6c 92 be 6f 90 d2 be 4f 76 b4 be
       -0.44245583 -0.28598288 -0.4112582 -0.35246512
000030 58 e1 94 3d 52 0a 50 bf 05 43 7c bf f9 11 ff be
       0.072695434 -0.8126575 -0.98539764 -0.498184
000040 ef 25 75 bf 64 e3 0e bf c0 fd f8 3c ef 19 c5 bd
       -0.9576101 -0.5581572 0.030394435 -0.09624087
000050 ee 8a 94 be c9 0e 1d be a2 21 31 3e 71 e6 25 bf
       -0.29012245 -0.15337671 0.17297986 -0.6480475
000060 ff 01 f8 bd 1c 48 ff be cb 1f 60 bf 09 0c b7 be
       -0.12109756 -0.49859703 -0.8754851 -0.3575137
000070 aa 60 18 bf d4 1a 84 be 6c a0 2e bf f1 2f 80 bf
       -0.595225 -0.25801718 -0.68213534 -1.001463
000080 e6 47 0c bf 78 eb 80 bf d7 0d 82 bf 61 cc 19 bf
       -0.5479721 -1.0071859 -1.0160474 -0.6007748
000090 90 ab 4f bf 03 b9 4a bf 93 04 c2 bc c8 bf 76 bf
       -0.8112116 -0.79188555 -0.023683822 -0.96386385
0000a0 d7 ad 47 bf 18 64 d9 be da 27 aa be 6f 9b 54 3d
       -0.77999634 -0.42459178 -0.3323353 0.051906046
0000b0 df f9 1b bf c7 89 23 bf 3e c0 88 be cd ba 05 bf
       -0.6092815 -0.63882107 -0.2670917 -0.5223816
0000c0 b7 7f 67 be 1f 54 13 bf cb 4b ec be 8e 1a ad be
       -0.22607313 -0.57550234 -0.46151575 -0.33809322
0000d0 aa 5a 66 bf 3a 92 03 be fd d7 1d be 2f 3a e7 be
       -0.8998209 -0.1284875 -0.15414424 -0.45161578
0000e0 b1 c7 04 bf 04 8f 8f be 5c 01 c3 be 8c 8e 0b be
       -0.51867205 -0.280388 -0.38086975 -0.13628596
0000f0 31 c3 3b bf 3e 10 b5 be 2a 56 07 be 3c 61 9d be
       -0.73344713 -0.35363954 -0.13216463 -0.30738246

running_var f4 [64]
000000 f9 22 14 3f 15 df 0d 3f 77 4a a6 3f 08 76 9a 3f
       0.57865864 0.5541852 1.2991475 1.206727
000010 2c df 21 3f 27 53 1a 40 c6 b1 23 3f cc b9 a4 3f
       0.6323116 2.4113252 0.63943136 1.2869201
000020 f6 11 73 3f f9 8a 02 3f f3 57 39 3f 70 e9 10 3f
       0.9494928 0.50993305 0.72399825 0.566062
000030 0f 08 3d 3f 2e 90 9d 3f 15 4e 15 40 39 43 0f 3f
       0.7384042 1.2309625 2.3328907 0.5596195
000040 5e 3b 0f 40 80 59 53 3f 05 8b 64 3f f3 e9 29 3f
       2.2379985 0.8255844 0.89274627 0.66372603
000050 1c 36 66 3f c2 1c 7b 3f 79 05 63 3f 84 76 0d 3f
       0.89926314 0.98090756 0.88680226 0.55258965
000060 fb 5f 13 3f 96 ba 76 3f 13 21 44 40 0f b2 42 3f
       0.5756833 0.9637846 3.0645187 0.76052946
000070 59 22 9a 3f bc d8 78 3f 5f 70 1c 3f ff 43 34 40
       1.2041732 0.9720571 0.61108965 2.8166502
000080 73 46 af 3f 43 8d a9 3f e2 9d da 3f 1b 36 a5 3f
       1.3693374 1.3246235 1.7079432 1.2907137
000090 4b f6 11 40 e1 f5 16 40 52 97 44 3f eb 6e 0a 3f
       2.2806575 2.3587573 0.76793396 0.540755
0000a0 c3 4f ad 3f 94 6e 3d 3f 6d 36 89 3f 02 1b 9a 3f
       1.3539966 0.73996854 1.0719734 1.2039492
0000b0 d9 28 e2 3f c0 f9 1b 40 de 88 4d 3f 00 52 77 3f
       1.7668716 2.4371185 0.8028697 0.966095
0000c0 ed 21 9a 3f 0d 5e 81 3f a4 9b 60 3f b0 9f e8 3e
       1.2041603 1.0106827 0.8773749 0.45434332
0000d0 37 fd 27 40 f6 0d 4b 3f c4 6b 27 3f 1e 52 82 3f
       2.62483 0.7931818 0.6539881 1.018131
0000e0 7d 5e 95 3f 5d 83 79 3f 1c 8b a2 3f 43 bd 7e 3f
       1.166946 0.9746607 1.2698703 0.9950754
0000f0 f0 e3 68 3f bd 2f 71 3f 8c 11 80 3f 80 a8 60 3f
       0.90972805 0.9421347 1.0005355 0.8775711

weight f4 [128, 64, 3, 3]
000000 c4 b2 02 3c ff d7 13 3c 23 1f 29 bc f4 b3 eb b9
       0.007977191 0.009023665 -0.010322365 -0.00044956768
000010 8b ed 99 ba 4d 64 16 3c 81 a9 5b 3c 27 f4 0f bd
       -0.0011743767 0.009179187 0.013407112 -0.03514495
000020 fa 89 2b bd 72 6b ec bb e9 0e a0 bc b3 31 1a bc
       -0.04187963 -0.007214957 -0.01953836 -0.009411263
000030 bd 7e bc 3c 62 6d ee 3c 55 86 86 3c 4f d4 32 3d
       0.023009652 0.029104892 0.016421476 0.043659505
000040 8e a5 12 3d 73 45 30 3d 0b a9 e4 ba 6a 75 ef 3c
       0.035802417 0.043034982 -0.0017445398 0.029230792
000050 2b 78 b2 3c f9 7e 09 3d f7 69 a7 bc 8e 91 96 bc
       0.021785816 0.033568356 -0.02043627 -0.018379953
000060 0c cc 96 bc a0 b3 e7 ba 41 1e 3c 3d df 93 18 3d
       -0.018407844 -0.0017677434 0.04592729 0.037250396
000070 9b 3a 50 ba bd 1a 2d bc 90 91 de 3c 76 8b 6d 3d
       -0.0007943303 -0.010565457 0.027169019 0.05799433
000080 46 c8 61 3b b2 6f 3e 3d 6c 76 b5 3c 0e ae a6 3c
       0.0034451648 0.04649324 0.022151195 0.020346668
000090 34 dc 44 bc 5b a5 84 bb bf c6 8a 3d d3 31 2f bc
       -0.012015391 -0.004048032 0.06776189 -0.010693031
0000a0 1d 5a ee 3c 74 6a 4b 3d f7 e1 6a 3d df c9 06 3c
       0.029095704 0.04966207 0.057344403 0.008226841
0000b0 bd f1 a9 bb 2e 11 05 3d 26 a5 2b 3d 3d af c8 3c
       -0.005186288 0.032487087 0.041905545 0.024497623
0000c0 f1 86 53 3d ce 0c b8 3c 8b 76 1a bc 4d 8a b2 3b
       0.051642362 0.022467043 -0.009427677 0.0054486156
0000d0 ad 31 38 bc 64 5c ab 3c 8f 9c 4d 3d 96 57 d2 3c
       -0.011242312 0.020918079 0.050198134 0.02567653
0000e0 77 e5 47 3d 10 b4 44 3d cf 6b 10 3d 68 ad 83 3d
       0.04880282 0.048023283 0.035259064 0.06429559
0000f0 a5 06 70 3c 8b 9d 59 3d 17 9f f9 3c 80 7b f6 3b
       0.014650022 0.05312876 0.030471368 0.0075220466
000100 7a b9 ce bc 25 df 5d bc e0 9e ab bc 71 f2 93 bc
       -0.025234926 -0.013541971 -0.020949781 -0.018059941
000110 1b 2d 0b bd f3 36 af bc 37 14 46 bc ec e6 1d 3d
       -0.033978563 -0.021388507 -0.0120897805 0.038550302
000120 24 99 bd ba 6c 41 5e 3d 92 4c 05 3d 62 29 32 bd
       -0.0014465195 0.05426161 0.032543726 -0.043496497
000130 53 0f 23 bd f3 ae 13 bc 75 bd d1 3c b8 fe b9 3c
       -0.039809536 -0.009013879 0.025603035 0.022704467
000140 56 f8 22 bc 05 b7 92 bb a6 b9 1a bb 9d 6c 73 b9
       -0.009946903 -0.004477384 -0.002360919 -0.00023214747
000150 4f 0c e3 3c 48 ac 8a 3c c9 61 84 3b 88 f4 15 3d
       0.02771583 0.016927853 0.004039977 0.036610156
000160 21 9e 20 3d 6d 6a 51 3d ae a8 0a 3d 41 82 b8 3c
       0.039213303 0.051126886 0.03385227 0.022523047
000170 2a 77 64 3d fc 6b bc 3a 5e 73 0e 3d 52 88 a7 3c
       0.055777706 0.0014375444 0.03477799 0.020450745
000180 09 ca b4 3c 63 61 88 3c 31 36 3c 3d 27 65 9f 3c
       0.022068994 0.016648 0.04595012 0.019457413
000190 4e c6 7c 3d 8a 76 bd 3c ef a5 96 3c ae 45 2c 3d
       0.061712556 0.023127813 0.01838967 0.04205864
0001a0 85 0b 84 3d 2d ad ac 3c 4e c0 11 bc f8 d4 6a 3d
       0.0644751 0.02107867 -0.008895947 0.05733201
0001b0 7b 50 90 3c f7 1b 0c 3d 85 66 02 3d 8b 03 4c 3d
       0.017616501 0.034206357 0.03183605 0.049808066
0001c0 a9 96 96 3c 81 af 37 3d 3b ed 4b 3d 68 9e bd bb
       0.018382387 0.044845108 0.049786787 -0.0057867058
0001d0 86 43 d2 3c 7d 46 1e 3d d5 4b 89 3d 3f e5 93 bc
       0.025666963 0.03864144 0.06703917 -0.018053649
0001e0 6f f5 ab 3c b2 fd 14 3d aa f0 38 3d 53 62 9c 3c
       0.020991055 0.036374755 0.04515139 0.019089853
0001f0 15 92 0a 3b 02 37 06 bc 61 7c 4e 3c 47 b0 8e bc
       0.00211442 -0.008191826 0.012602896 -0.01741804
000200 1a af 82 bc e5 5e c3 3b 79 1e 0a 3d d2 74 6a 3d
       -0.015952636 0.00596224 0.033720467 0.057240315
000210 c7 9b 10 3d c3 4c ee 3c bb 21 8d 39 b9 82 ff 3b
       0.03530481 0.029089337 0.00026918747 0.007797566
000220 4b 9d 7f bb 36 86 c6 bc 7f 80 b8 3a 20 59 cf bc
       -0.0039003666 -0.024233919 0.0014076381 -0.025311053
000230 d4 bd 24 bd b9 eb 8e bb e5 ad f0 bb 9d ea 00 3d
       -0.040220097 -0.0043615964 -0.0073449486 0.031473745
000240 a6 84 3a bc 93 28 15 3d 7b 28 00 bd 26 ac d7 bc
       -0.011384165 0.036415648 -0.031288605 -0.026327204
000250 b3 99 4b 3d 02 5f 1d bc 7e f6 3c 3d 93 10 63 3b
       0.049707126 -0.009605171 0.04613351 0.003464733
000260 90 55 01 3d d5 0d ed 3c ba e6 c5 3c cd 16 53 3d
       0.03157574 0.02893726 0.02415787 0.051535416
000270 36 eb ad 3c f4 50 72 3d 2f 2b 2b 3c c4 6b 0b bc
       0.021230321 0.059159234 0.0104473075 -0.00850958
000280 6d f7 a0 3c d9 bc 62 3c 70 4b d0 3c 45 20 b2 bc
       0.019649232 0.01383897 0.025426596 -0.021743903
000290 48 7f dc bb c4 4c 23 bd b4 e1 af 3c 0d e8 b3 bc
       -0.0067290403 -0.03986813 0.021469928 -0.021961236
0002a0 f6 4b 8a 3c c6 41 94 bc 28 c5 1a bc 86 02 42 3d
       0.016881924 -0.01809777 -0.00944642 0.047365688
0002b0 9e 6e 2b bc ed cc 54 3d d6 03 60 3d d2 04 d9 3c
       -0.010463385 0.051953245 0.05469116 0.026491556
0002c0 f1 e8 63 3d c4 c9 1a bc 2c 7d e2 3c c6 70 66 3d
       0.055642072 -0.009447519 0.027647577 0.056259893
0002d0 81 b9 32 bd 69 f7 97 3c 37 df 10 bc 18 14 00 3d
       -0.04363394 0.018550592 -0.008842281 0.031269163
0002e0 aa a7 43 3d 95 4f 0d 3d 30 52 a5 3b c0 81 33 3c
       0.04776732 0.034499723 0.005045198 0.010956228
0002f0 93 af 56 bc 1d fa ec bb ca 6f d9 bc 18 24 4e 39
       -0.013103384 -0.0072319643 -0.026542563 0.00019659137
000300 75 c7 ee 3b 38 f5 c9 bb 7a a1 ee bc 4a 05 2a bd
       0.0072869607 -0.0061632656 -0.029129732 -0.04150895
000310 60 3a 64 3c e6 b0 9b 3c f0 2f 9b bb dd 34 6c 3d
       0.013929933 0.01900525 -0.004735939 0.0576676
000320 24 c7 86 3d 0f 70 43 3d 31 32 bf 3c 23 fc 6c 3b
       0.06580952 0.04771429 0.023339363 0.0036161027
000330 36 4d d8 3c 48 30 4d bc d1 ae 28 3b 30 eb 91 bc
       0.026404005 -0.012523718 0.0025738964 -0.017812341
000340 2e 8d aa 3b 0b 29 e7 ba a2 ea 09 3d 90 b5 ee 3c
       0.005204818 -0.0017636133 0.03367103 0.02913931
000350 83 3e b2 b9 dc 86 bc 3c fb 35 ee bc 3a ca 0f bc
       -0.0003399738 0.023013525 -0.029078474 -0.008776242
000360 1f a9 7e bc 26 d8 21 3c d6 1b e7 bc 30 95 6e bc
       -0.015543251 0.009878194 -0.028211515 -0.014561936
000370 eb fd 92 bc 60 d5 b9 bb 17 c3 6a bd 57 91 21 3c
       -0.017943343 -0.0056711882 -0.05731496 0.009861312
000380 94 2d bb 3c 52 0b 6f bc 13 94 15 bc a3 f6 a2 3c
       0.022848882 -0.014590101 -0.009129542 0.019892996
000390 e0 63 ef 3b eb 59 0c 3d b7 55 df bb 9e b7 08 bd
       0.007305607 0.03426544 -0.006815638 -0.033378236
0003a0 dc 48 d9 bc c3 e8 08 3d a2 63 1c bd 85 4f fe 3c
       -0.026524 0.033425104 -0.038180955 0.031043777
0003b0 c2 ee 1c 3c 8d 9e dd 3a 5e 5d 8a 3c 06 2b 2d bd
       0.009578409 0.0016908214 0.016890224 -0.04227736
0003c0 ed 0d 8e 3c f6 47 44 3c 7d c9 db bc 6f 9e 8c 3c
       0.017340625 0.011980047 -0.026829476 0.01716539
0003d0 0d 3e 8e bc 4e 82 f9 3b a5 84 5c bc a6 9f 45 3d
       -0.017363572 0.0076144105 -0.013459359 0.048247956
0003e0 d5 e7 86 3c 70 8f 28 3d 2b a3 ba 3c d1 b5 61 3b
       0.016467968 0.041152418 0.022782883 0.0034440646
0003f0 a0 24 1b 3d 16 75 df 3c 34 49 82 bc ce c5 81 bc
       0.037876725 0.02727751 -0.015904047 -0.015841391

bias f4 [128]
000000 7a c1 96 bc e0 ec 6e 3d e1 58 e6 3a 2c 87 1e 3d
       -0.018402804 0.05833137 0.0017574095 0.03870313
000010 8b bd fd 3c c4 2d a0 bc 78 79 64 3d bf 86 31 bc
       0.03097417 -0.019553073 0.055779904 -0.010835349
000020 04 4b 61 3d bd 75 4d 3d 47 87 ad 3a 4f 30 04 3d
       0.05500318 0.050161112 0.0013239168 0.032272633
000030 0b 9a 2d ba 5f 44 89 3c 2f d4 dd 3c 0c 8b 75 bc
       -0.00066223805 0.016756235 0.027078716 -0.014986765
000040 65 31 b9 bc 88 7c 89 bb 67 41 59 3c 14 03 ea 3c
       -0.022606561 -0.0041957535 0.013260222 0.02856592
000050 fd 58 30 3d e3 03 88 3c 63 07 3a 3d 56 15 2b 3d
       0.043053616 0.016603416 0.0454172 0.041768394
000060 9b e1 37 3d e8 c3 1b 3c 31 36 06 3d 5b c0 00 bc
       0.04489289 0.009507157 0.032766525 -0.007858361
000070 f8 81 48 3c 52 ca 58 bc 31 7d 54 3d 11 e0 a5 bc
       0.012238018 -0.013231831 0.051877204 -0.020248445
000080 12 a6 f6 bc 99 27 c4 3c e4 fe b0 ba 11 e5 43 3c
       -0.030108485 0.023944663 -0.0013503698 0.011956469
000090 df 00 98 bc cc 92 82 3d fc c4 fa 3c 6d 0c 03 3d
       -0.018555103 0.063756555 0.030611508 0.031994272
0000a0 5a 36 9e bc 5e b6 c3 3b b4 ca ca 3b 12 71 9a bc
       -0.019313026 0.0059726676 0.006188715 -0.018852744
0000b0 e0 cc 81 3b 26 6e 4c 3b 6b 7f 51 3c 14 a2 bb 3c
       0.0039611906 0.0031193583 0.0127867265 0.022904433
0000c0 3c 1a 49 3b 60 83 34 3d b0 bb d4 3c a9 d2 d0 3c
       0.0030685803 0.0440706 0.025968403 0.025491076
0000d0 21 51 89 3d 64 4f 9d 3b ae 4d 8f bc c5 f4 a5 bc
       0.06704927 0.004800724 -0.017493095 -0.020258317
0000e0 f0 93 b2 bc 57 52 aa 3b 50 3f 62 3d 18 72 0a 3d
       -0.021799058 0.005197804 0.05523616 0.033800215
0000f0 54 4d d3 bc 47 5a 27 bc 29 7e b1 3c 58 92 88 bb
       -0.025793709 -0.010214395 0.021666603 -0.004167836
000100 27 de 1d 3d b4 c7 90 3c 0c 7f f2 bc 7c b7 00 3d
       0.03854194 0.01767335 -0.029601596 0.031424984
000110 67 cd 41 3c d8 18 8f 3b 95 84 42 3d 03 81 80 3c
       0.011828757 0.0043669753 0.04748972 0.015686518
000120 18 a1 88 3d de 8b f4 3b 44 2b 80 3d a7 58 b1 bb
       0.06671351 0.0074629625 0.06258252 -0.0054121795
000130 64 fd 94 bb 88 90 60 3d af 39 42 3c 16 ed 2a bc
       -0.004546808 0.054825336 0.011854573 -0.010432502
000140 3b d5 d4 3b cb 31 bc 3c 7d 3e 22 3c 8a df 0b bc
       0.0064951456 0.022972962 0.009902594 -0.008537183
000150 e8 fb 05 3d 89 89 16 3c e9 cd aa 3b 34 30 08 3d
       0.03271094 0.009188064 0.0052125347 0.033249095
000160 03 07 a2 bc 1f 6c 9a 3c 21 d6 e0 3b 8c 84 03 3d
       -0.019778734 0.018850384 0.0068614637 0.03210883
000170 1e d2 59 3c 76 e7 f2 b8 a0 2a 30 3c 41 38 03 3d
       0.013294725 -0.00011582572 0.01075235 0.03203607
000180 b2 48 cf 3c 64 b8 b5 3c 60 e1 0c 3c 13 c6 f1 3c
       0.025303219 0.02218265 0.008598655 0.029513394
000190 a6 66 fc 3c 5b 16 54 3c 77 34 b5 bc 19 fe 02 3c
       0.030810665 0.012944783 -0.022119744 0.007995152
0001a0 a4 67 0c 3d 47 51 07 3d 4c e5 55 3d 1a fa f2 3c
       0.034278527 0.033036496 0.052220628 0.029660273
0001b0 c9 64 46 bc 57 47 ce 3b 94 49 ed 3a 8f 04 41 3d
       -0.01210899 0.0062951255 0.0018103593 0.047123488
0001c0 7a 3d a0 3c e2 0c 3b 3d 41 d2 6b 3d 7f c9 47 3d
       0.019560564 0.045666583 0.05757356 0.048776146
0001d0 24 f6 05 3c 77 23 42 3d d4 9b cf 3c aa 98 dc bc
       0.00817636 0.047397103 0.02534286 -0.026928265
0001e0 74 01 4d 3d 07 89 8c 3b 44 62 14 3d 3b 95 e2 bc
       0.050050214 0.004288796 0.036226526 -0.02765905
0001f0 50 68 81 bc 7b 53 e9 bc 37 bf b2 3c e7 02 47 3d
       -0.01579681 -0.02848219 0.021819694 0.048586752

weight f4 [128]
000000 93 d4 87 3f 05 2e 88 3f a5 ff 87 3f 97 c1 86 3f
       1.0611748 1.0639044 1.0624892 1.0527829
000010 5a 20 88 3f e8 c1 88 3f 11 f0 88 3f 98 5f 84 3f
       1.0634873 1.0684175 1.0698262 1.0341673
000020 f2 a0 88 3f 0c 5e 86 3f 5d d2 88 3f 3a 32 86 3f
       1.0674117 1.0497451 1.0689198 1.0484078
000030 23 ea 87 3f 15 2b 86 3f ce a1 88 3f 10 96 85 3f
       1.0618328 1.0481898 1.0674379 1.043642
000040 27 1f 86 3f 69 4e 86 3f 8e 2d 87 3f 0f a1 88 3f
       1.0478257 1.0492679 1.0560777 1.0674151
000050 f1 90 86 3f 19 95 88 3f 2f 61 85 3f cd bd 88 3f
       1.0512983 1.0670501 1.0420283 1.0682923
000060 f0 42 87 3f 2e 80 87 3f 6f 7c 88 3f 40 b5 88 3f
       1.0567303 1.0585992 1.0662974 1.0680313
000070 37 89 84 3f 37 d7 86 3f f9 f2 84 3f 67 a2 88 3f
       1.0354375 1.0534428 1.0386649 1.0674561
000080 7a 5e 86 3f 0a b4 85 3f 50 c9 88 3f 2f 81 88 3f
       1.0497582 1.0445569 1.0686436 1.0664424
000090 71 ff 87 3f b8 05 88 3f ef bc 88 3f ad 92 88 3f
       1.062483 1.0626745 1.0682658 1.0669762
0000a0 74 e9 86 3f d7 d0 88 3f d0 c0 88 3f b5 a0 88 3f
       1.0539994 1.0688733 1.0683842 1.0674044
0000b0 9d 29 88 3f 9c 8a 88 3f d3 e5 87 3f 4e 69 86 3f
       1.0637699 1.06673 1.0617012 1.0500886
0000c0 8e c7 88 3f 29 b2 88 3f f1 b5 84 3f 60 18 88 3f
       1.0685899 1.067937 1.0368024 1.0632439
0000d0 f3 c8 88 3f bf c6 88 3f 42 32 86 3f 1d e1 87 3f
       1.0686325 1.0685652 1.0484087 1.0615574
0000e0 36 db 88 3f 49 94 88 3f 53 92 87 3f 8a d5 88 3f
       1.0691898 1.0670253 1.059153 1.0690167
0000f0 6f 32 87 3f 9f e6 85 3f 47 e2 87 3f d1 d8 88 3f
       1.0562266 1.0461005 1.0615929 1.0691167
000100 bd a1 88 3f 14 10 88 3f fa bb 87 3f eb 77 86 3f
       1.0674359 1.0629907 1.0604241 1.0505346
000110 ce 2f 87 3f 4d ab 88 3f 8f 9f 88 3f 87 31 87 3f
       1.0561464 1.0677277 1.0673693 1.056199
000120 05 1a 84 3f 12 d5 88 3f 95 91 88 3f e7 30 88 3f
       1.032044 1.0690024 1.0669428 1.0639924
000130 c9 68 88 3f d2 3d 88 3f 84 95 88 3f 0a 0a 88 3f
       1.0656978 1.0643866 1.0670629 1.0628064
000140 fd 1b 87 3f 75 94 86 3f a8 29 88 3f 7c 51 88 3f
       1.0555416 1.0514055 1.0637712 1.0649867
000150 f4 e3 88 3f 3d c6 86 3f a0 1e 88 3f 6a 12 87 3f
       1.0694566 1.0529248 1.0634346 1.0552495
000160 fe bb 88 3f 71 9d 85 3f da f2 87 3f 93 0a 88 3f
       1.0682371 1.0438672 1.0620987 1.0628227
000170 bb 0e 86 3f a3 d0 82 3f cf 06 88 3f 9b be 87 3f
       1.0473245 1.0219921 1.0627078 1.0605043
000180 07 0c 88 3f 89 a5 86 3f c7 18 86 3f fb 98 88 3f
       1.062867 1.0519267 1.0476311 1.0671686
000190 f9 ed 87 3f 2e 23 88 3f 2d b8 88 3f 5e a7 86 3f
       1.0619498 1.0635736 1.0681206 1.0519826
0001a0 de e7 83 3f 79 b7 88 3f 83 aa 88 3f e4 40 87 3f
       1.0305135 1.0680991 1.0677036 1.0566678
0001b0 a5 f7 87 3f 48 f7 87 3f 16 0b 87 3f 6b 8e 87 3f
       1.062245 1.0622339 1.0550258 1.0590338
0001c0 bf 72 88 3f 8c 16 88 3f c7 a0 88 3f 23 8c 88 3f
       1.0660018 1.0631881 1.0674065 1.0667766
0001d0 a3 a0 88 3f 9b 24 88 3f 57 a1 86 3f c2 14 87 3f
       1.0674022 1.0636171 1.0517987 1.055321
0001e0 1e ed 84 3f 7e 24 88 3f 6c 49 87 3f 12 02 88 3f
       1.0384862 1.0636137 1.0569282 1.0625632
0001f0 39 c8 88 3f 5c 3b 87 3f e0 ea 88 3f 45 3d 86 3f
       1.0686103 1.056499 1.0696678 1.0487448
